app/src/main/assets/espnet-disease.tflite (tflite, 390068 bytes, 93 tensors)

arith.constant f4 [128]
-0.011692407 0.062627956 0.009589209 -0.022891492 0.012104271 -0.027421217 -0.010508637 -0.04349955
0.008242847 -0.0004462822 0.131093 -0.020011727 -0.0034909006 0.13553812 0.111385845 -0.010023769
-0.0759161 0.059582047 -0.13833342 0.09943944 -0.06971376 -0.048714302 -0.032879833 -0.05189134
0.04901907 0.03793203 0.03987688 -0.094056726 0.05724676 0.073793344 0.03633906 0.116628885
0.06360337 0.12285743 -0.055007294 0.025553076 -0.0703926 -0.028459888 0.065053925 0.034735374
0.092129745 0.05924941 0.017863669 0.014901688 -0.09198135 -0.018548667 0.006496854 -0.1387307
0.14377274 0.035886727 0.07685237 0.038695104 -0.08149702 -0.07766965 -0.010400903 0.0022007274
-0.028114159 0.004178736 -0.059807878 0.041080438 0.101666495 0.0064372467 -0.014678795 -0.11892488
0.092628196 0.032495275 -0.1440577 -0.13646221 0.084793165 0.020682653 -0.023075014 -0.0014440045
-0.032389082 -0.13906005 -0.041819744 -0.044947375 0.114918366 -0.17683806 0.017967442 0.06938863
-0.08005638 -0.04055461 -0.05235695 0.006766269 0.020618672 0.1401448 -0.15442273 -0.031292796
0.017465616 0.006767215 0.0031308122 0.06911736 0.01791865 0.07390728 0.063775286 0.116292946
0.0033976436 0.0148721 -0.051438548 -0.015265261 0.009974753 -0.021004492 0.039353944 0.11303203
-0.04846524 -0.084139206 0.11850984 -0.07782591 0.0152331535 -0.13108014 0.04391122 -0.11202605
0.0055642677 -0.09164345 0.03364384 -0.027173048 -0.049822092 -0.108513184 0.085629344 -0.021782756
-0.053722516 -0.019406589 0.03949778 -0.027937258 -0.0075006844 -0.11534142 -0.013668506 -0.0066359807
00000000: 8291 3fbc 1643 803d 0f1c 1d3c f086 bbbc
00000010: fe50 463c 76a2 e0bc 6b2c 2cbc 962c 32bd
00000020: 020d 073c fcfa e9b9 3e3d 063e a2ef a3bc
00000030: 98c7 64bb 81ca 0a3e 431e e43d bc3a 24bc
00000040: e679 9bbd 4e0c 743d 47a7 0dbe e8a6 cb3d
00000050: 16c6 8ebd a688 47bd 01ad 06bd 048c 54bd
00000060: 38c8 483d 9e5e 1b3d f055 233d d0a0 c0bd
00000070: 947b 6a3d f720 973d 44d8 143d 20db ee3d
00000080: 7c42 823d ad9c fb3d 544f 61bd af54 d13c
00000090: ff29 90bd b624 e9bc fe3a 853d ae46 0e3d
000000a0: 85ae bc3d 82af 723d d456 923c 3626 743c
000000b0: b860 bcbd 60f3 97bc 90e3 d43b 6c0f 0ebe
000000c0: 2939 133e f6fd 123d c664 9d3d c27e 1e3d
000000d0: e9e7 a6bd 4411 9fbd 8d68 2abc 143a 103b
000000e0: aa4f e6bc c7ed 883b 1bf9 74bd f643 283d
000000f0: 8636 d03d 8aef d23b 547f 70bc e38e f3bd
00000100: dab3 bd3d c419 053d dd83 13be c0bc 0bbe
00000110: 0aa8 ad3d ab6e a93c d007 bdbc c044 bdba
00000120: 6aaa 04bd c265 0ebe 2e4b 2bbd bd1a 38bd
00000130: 525a eb3d 0915 35be 7530 933c a01b 8e3d
00000140: 99f4 a3bd 971c 26bd 3e74 56bd 94b7 dd3b
00000150: 7de8 a83c 1e82 0f3e fe20 1ebe e02c 00bd
00000160: 0d14 8f3c 84bf dd3b 502e 4d3b 678d 8d3d
00000170: 22ca 923c b35c 973d 9e9c 823d ff2a ee3d
00000180: 00ab 5e3b 1caa 733c 3ab1 52bd 251b 7abc
00000190: 256d 233c 9d11 acbc 9a31 213d 567d e73d
000001a0: 7d83 46bd 2d51 acbd 49b5 f23d 3163 9fbd
000001b0: 7a94 793c df39 06be 40dc 333d ea6d e5bd
000001c0: 7654 b63b 90af bbbd 20ce 093d 039a debc
000001d0: 4012 4cbd 293c debd 705e af3d c071 b2bc
000001e0: 240c 5cbd 91fa 9ebc 6dc8 213d addc e4bc
000001f0: 4dc8 f5bb 1f38 ecbd dff1 5fbc a472 d9bb

arith.constant1 f4 [128]
0.002316258 0.029904615 -0.011161167 -0.05750917 0.05026289 0.05694554 0.014763599 -0.07981293
0.028750699 0.03157961 0.048276234 -0.118297026 0.05196927 -0.032502286 0.04545007 0.034174986
-0.08165323 0.04029562 -0.049252413 -0.072078876 -0.036218762 -0.045017324 -0.024222922 -0.08183592
-0.068525836 0.07322821 0.07796593 0.072999194 -0.053602085 -0.0410026 0.09556399 0.04627005
-0.105252124 -0.035954542 0.031695087 -0.07103069 0.10259576 -0.046030182 -0.09037946 -0.05401458
0.09631598 0.03249495 -0.08276661 -0.008563436 0.06506004 -0.10720989 -0.07630065 0.08318303
-0.040494394 -0.069449894 -0.06032489 -0.006100988 0.028360449 -0.009095218 0.02069645 0.11565104
-0.032060206 -0.036313064 0.026157904 -0.0073395683 0.131009 -0.0287759 -0.044414848 0.014434333
0.07514665 0.009262489 -0.05178002 -0.06471835 -0.0009959638 0.07987371 0.029948713 -0.060277842
0.025644304 0.111367404 -0.05782181 -0.08273885 0.17324317 -0.09167826 -0.048501052 0.012146715
0.06135632 0.022074938 -0.09354831 -0.008232115 -0.06840472 -0.0741765 -0.06089446 0.07235459
0.0003971979 0.06492042 0.11427449 -0.065379225 0.09288047 0.038499802 0.014673071 0.09700637
0.137946 0.027421605 -0.044618398 -0.049258955 -0.122395016 -0.0035286266 0.10947349 -0.009224631
-0.018554855 -0.03210476 -0.016522877 -0.10642934 -0.12606716 -0.10204478 0.053641893 -0.10394802
0.09216657 0.069819994 0.090257995 -0.15103784 -0.18542178 0.0052403733 -0.02845152 0.04317761
0.06526421 0.09634745 0.060181633 -0.055859618 0.11320199 -0.059700895 -0.0049713524 0.09640388
00000000: 5ccc 173b 86fa f43c 54dd 36bc bc8e 6bbd
00000010: 76e0 4d3d ba3f 693d 06e3 713c f674 a3bd
00000020: 9686 eb3c 9f59 013d 4dbd 453d b645 f2bd
00000030: bbdd 543d 1e21 05bd da29 3a3d 12fb 0b3d
00000040: cf39 a7bd 050d 253d e6bc 49bd 179e 93bd
00000050: 205a 14bd 1664 38bd 266f c6bc 9799 a7bd
00000060: 4657 8cbd acf8 953d 9aac 9f3d 9a80 953d
00000070: dc8d 5bbd 58f2 27bd 0eb7 c33d aa85 3d3d
00000080: 6d8e d7bd 1245 13bd b5d2 013d 8a78 91bd
00000090: ba1d d23d 258a 3cbd de18 b9bd 643e 5dbd
000000a0: 5041 c53d 6d19 053d 8a81 a9bd a74d 0cbc
000000b0: 333e 853d dc90 dbbd 8443 9cbd dd5b aa3d
000000c0: 73dd 25bd bf3b 8ebd 3b17 77bd ccea c7bb
000000d0: 2c54 e83c 1c04 15bc 9a8b a93c 74da ec3d
000000e0: 9051 03bd 02bd 14bd 1a49 d63c c380 f0bb
000000f0: 3927 063e 70bb ebbc 58ec 35bd fb7d 6c3c
00000100: 7de6 993d b2c1 173c 4917 54bd 0e8b 84bd
00000110: 008b 82ba d494 a33d 0157 f53c e6e5 76bd
00000120: 0114 d23c 9814 e43d 90d6 6cbd fc72 a9bd
00000130: a866 313e d0c1 bbbd 0aa9 46bd 0403 473c
00000140: c450 7b3d 80d6 b43c 4296 bfbd fedf 06bc
00000150: c617 8cbd d9e9 97bd 786c 79bd a52e 943d
00000160: 003f d039 fff4 843d be08 ea3d 8be5 85bd
00000170: 1e38 be3d f8b1 1d3d 5267 703c 47ab c63d
00000180: b741 0d3e 46a3 e03c c8c1 36bd c2c3 49bd
00000190: 3daa fabd 8840 67bb a333 e03d e822 17bc
000001a0: 5a00 98bc 4880 03bd fc5a 87bc a0f7 d9bd
000001b0: c017 01be dbfc d0bd 9ab7 5b3d b3e2 d4bd
000001c0: d4c1 bc3d c9fd 8e3d 2fd9 b83d aaa9 1abe
000001d0: 35df 3dbe 70b7 ab3b 2913 e9bc 01db 303d
000001e0: 3ea9 853d d051 c53d 0481 763d 0ecd 64bd
000001f0: 72d6 e73d ed88 74bd bae6 a2bb 666f c53d

arith.constant2 f4 [128]
0.038568925 -0.10055476 0.024528064 -0.10045035 0.15389639 -0.031649128 0.0612737 0.047058057
0.00015314762 0.081723675 0.019532911 -0.03894338 -0.047974646 0.031642973 0.013354396 0.043702148
-0.098979995 0.12563035 -0.05194444 -0.039348062 -0.017263258 0.013971515 0.046792515 -0.07770275
0.047003675 -0.005397299 -0.031567052 -0.07079089 -0.08099717 0.03841514 0.061371874 0.13068487
0.1102007 -0.008488408 -0.010478262 -0.01955404 0.08373201 0.010668146 -0.010194084 0.07801966
-0.0348319 -0.00821257 0.0069262846 0.043227457 0.101715334 -0.027972285 0.03697908 0.02777172
0.056122206 0.040092815 -0.068524614 0.06931621 -0.055782117 0.023041204 0.000499798 0.1528615
0.00043119118 0.05955371 0.08451728 0.08176325 0.053617418 0.046380308 0.012130212 0.03734865
-0.0071391053 0.0767416 -0.034298066 0.013845782 -0.13404109 0.057612084 -0.010291746 0.00047326274
-0.014335844 0.00016643852 -0.13323197 -0.03400251 0.08420719 0.0041311607 -0.0090396125 -0.02221261
0.05700822 0.008618578 0.066022314 0.031067245 -0.03547477 -0.01826848 -0.0044763647 -0.00019828137
-0.00056697056 0.06734089 0.029169742 0.02151564 -0.020818118 -0.016649436 0.03888034 0.16486552
0.019858392 -0.026390426 -0.030840725 -0.0078364685 -0.07297957 -0.13722289 0.032256167 0.042605642
0.026503146 -0.08646019 0.06067201 -0.04662033 0.003986276 -0.14793746 0.030660443 -0.00071981177
-0.06405798 0.027288668 0.061290503 -0.016293539 -0.03830888 -0.08331231 -0.029919447 0.013696134
0.052505378 0.01683267 -0.0350099 -0.01974341 0.06317311 -0.060829587 0.011263964 0.05462267
00000000: 73fa 1d3d a7ef cdbd 14ef c83c eab8 cdbd
00000010: 0497 1d3e 84a2 01bd 22fa 7a3d f3bf 403d
00000020: 4096 2039 be5e a73d 7c03 a03c 1883 1fbd
00000030: 1081 44bd 109c 013d 66cc 5a3c 0601 333d
00000040: 06b6 cabd 3ea5 003e b1c3 54bd 6f2b 21bd
00000050: ad6b 8dbc c8e8 643c 82a9 3f3d 9f22 9fbd
00000060: ed86 403d d3db b0bb 744c 01bd d0fa 90bd
00000070: d8e1 a5bd 3259 1d3d 1361 7b3d 41d2 053e
00000080: e8b0 e13d f712 0bbc 04ad 2bbc cb2f a0bc
00000090: b07b ab3d 73c9 2e3c 1605 27bc c6c8 9f3d
000000a0: e5ab 0ebd 048e 06bc e3f5 e23b 460f 313d
000000b0: 2150 d03d 2226 e5bc 6077 173d 8581 e33c
000000c0: 66e0 653d 5d38 243d a256 8cbd a8f5 8d3d
000000d0: ca7b 64bd e8c0 bc3c e004 033a ba87 1c3e
000000e0: 8011 e239 97ee 733d 6517 ad3d 7e73 a73d
000000f0: f09d 5b3d 47f9 3d3d ccbd 463c e6fa 183d
00000100: 28ef e9bb b32a 9d3d 217c 0cbd 6bd9 623c
00000110: 1142 09be a6fa 6b3d b69e 28bc 4020 f839
00000120: e3e0 6abc 0086 2e39 f66d 08be 3746 0bbd
00000130: d274 ac3d b05e 873b e21a 14bc 38f7 b5bc
00000140: 7481 693d f034 0d3c b536 873d bc80 fe3c
00000150: fe4d 11bd c8a7 95bc 78ae 92bb c0e9 4fb9
00000160: c0a0 14ba 05ea 893d 62f5 ee3c 9141 b03c
00000170: c28a aabc 6664 88bc fe40 1f3d 82d2 283e
00000180: 11ae a23c bc30 d8bc b0a5 fcbc 8864 00bc
00000190: 5076 95bd 2884 0cbe 0b1f 043d 4183 2e3d
000001a0: 201d d93c 0a12 b1bd 3783 783d f6f4 3ebd
000001b0: 4f9f 823b eb7c 17be 9c2b fb3c c0b1 3cba
000001c0: d530 83bd 7c8c df3c c00b 7b3d 077a 85bc
000001d0: c6e9 1cbd a59f aabd a119 f5bc c065 603c
000001e0: e10f 573d abe4 893c 8a66 0fbd efbc a1bc
000001f0: e760 813d 7228 79bd 7d8c 383c 05bc 5f3d

arith.constant3 f4 [128]
0.015855525 -0.041888494 0.070381165 -0.024527395 0.075982004 -0.048955046 0.038142785 -0.06319669
-0.05686304 0.082047835 0.09641291 -0.12497251 0.011589762 -0.009987342 -0.06291457 0.012840051
0.023928912 0.042998396 0.054654203 -0.008524092 -0.0013107625 0.04689242 -0.01714525 -0.0053966353
0.017123658 0.00572186 -0.029175572 -0.034073416 0.01094332 -0.04406733 0.032183606 0.024662638
0.09430618 0.019614752 0.08228523 0.02336137 0.04974797 -0.05135674 0.06471991 0.016174257
0.18434902 0.007194992 0.070720956 -0.04562726 0.031393707 -0.14894553 0.0626298 -0.04940436
0.060350426 0.01325817 -0.16115597 0.038303863 -0.043331224 0.06444788 -0.009485885 -0.040523063
-0.020554679 0.11204886 0.02241294 -0.09517524 0.052304056 -0.019526565 0.059997737 -0.051319852
-0.062338345 0.019082844 -0.20351723 -0.030372865 -0.07749413 -0.047373608 0.040670976 -0.1557908
0.111916065 -0.022998117 -0.0073881852 0.128708 0.017438881 -0.032541275 0.04788696 0.031419892
0.1238413 0.093752414 -0.0786055 -0.060377568 -0.195103 0.060494807 -0.030773414 0.0340667
0.023484662 0.0075572208 -0.029286351 0.010658078 0.049528286 -0.0034695668 0.06334834 -0.0372046
0.08208668 -0.0338055 -0.0780569 -0.029028218 -0.11438425 -0.052011505 -0.053112496 0.018915283
0.020219494 -0.07105561 -0.107859686 -0.06341006 0.023698073 -0.11778572 -0.11110389 -0.07523563
-0.03864107 -0.19198683 0.10834631 0.0306303 -0.038340203 0.035556212 0.047843687 0.09758054
0.05743638 0.0071106534 0.04105333 0.0991777 0.08926806 -0.075655885 -0.11091947 0.07026897
00000000: 72e3 813c 4593 2bbd 0024 903d aded c8bc
00000010: 749c 9b3d 1685 48bd 9c3b 1c3d 446d 81bd
00000020: 38e9 68bd b208 a83d 2274 c53d 96f1 ffbd
00000030: fce2 3d3c f3a1 23bc 5bd9 80bd 145f 523c
00000040: 9106 c43c 161f 303d 16dd 5f3d a2a8 0bbc
00000050: e4cd abba 4412 403d 3274 8cbc 42d6 b0bb
00000060: ea46 8c3c 717e bb3b 9c01 efbc 9190 0bbd
00000070: 9c4b 333c f27f 34bd f5d2 033d 4d09 ca3c
00000080: 9923 c13d 1eaf a03c 2985 a83d 5860 bf3c
00000090: 87c4 4b3d 725b 52bd df8b 843d e07f 843c
000000a0: fdc5 3c3e f8c3 eb3b 26d6 903d a6e3 3abd
000000b0: b096 003d 2d85 18be 0d44 803d 3a5c 4abd
000000c0: 0232 773d cc38 593c 1206 25be 83e4 1c3d
000000d0: 157c 31bd 40fd 833d af6a 1bbc 83fb 25bd
000000e0: 4962 a8bc df79 e53d 589b b73c 3ceb c2bd
000000f0: c73c 563d 2df6 9fbc 30c0 753d c434 52bd
00000100: 7e56 7fbd a053 9c3c d266 50be 84d0 f8bc
00000110: 3eb5 9ebd d40a 42bd 9c96 263d a087 1fbe
00000120: 4034 e53d 8c66 bcbc 9718 f2bb 08cc 033e
00000130: fcdb 8e3c 004a 05bd 1e25 443d 25b2 003d
00000140: 82a0 fd3d 4401 c03d ecfb a0bd 784e 77bd
00000150: 15c9 47be 67c9 773d 8718 fcbc 8689 0b3d
00000160: e862 c03c 90a2 f73b eee9 efbc 389f 2e3c
00000170: 2cde 4a3d ac61 63bb c6bc 813d da63 18bd
00000180: 101d a83d a377 0abd 4cdc 9fbd 96cc edbc
00000190: 4a42 eabd 040a 55bd 7d8c 59bd 39f4 9a3c
000001a0: 5aa3 a53c 9b85 91bd 8ae5 dcbd 22dd 81bd
000001b0: 7622 c23c a439 f1bd 708a e3bd 2315 9abd
000001c0: 1946 1ebd 3298 44be ace4 dd3d 65ec fa3c
000001d0: 9e0a 1dbd 64a3 113d bef7 433d 4ed8 c73d
000001e0: 6942 6b3d 7c00 e93b 8927 283d ae1d cb3d
000001f0: 2cd2 b63d 79f1 9abd bf29 e3bd 2ee9 8f3d

arith.constant4 f4 [128]
0.022598447 -0.06638525 0.034184106 0.015966676 -0.02265944 0.07921203 -0.026384212 0.0069203074
0.041873116 0.061131597 0.073799804 -0.065600954 0.032176882 0.030307088 -0.0033325786 0.04794061
0.030439176 -0.07182346 -0.05253266 0.040696956 -0.040849138 -0.019816745 0.03185198 0.019408904
-0.050795995 0.03187924 0.09735358 0.09151236 0.11177776 -0.0818149 -0.036687873 0.08517355
0.0077779517 -0.033657987 0.018550621 -0.031222874 -0.035943963 -0.025237396 0.02651519 0.084477365
0.018996501 0.006562149 -0.1247568 -0.008628726 0.17682286 -0.0026922636 -0.1495034 -0.05301428
-0.031375468 0.010933561 0.040347848 0.06509712 -0.08378175 0.07394883 0.0030339882 -0.031929456
-0.01902554 -0.017049082 -0.04127456 -0.047438048 0.15090427 -0.13161352 0.05806662 0.05223637
0.040990528 -0.056825526 0.031226417 -0.053085864 0.053768575 0.15064442 -0.0052715973 -0.12871975
0.15617959 -0.030095559 0.08409702 0.03660313 0.12243396 -0.046304274 -0.05287722 0.04822521
0.021695944 0.020390142 -0.022549765 -0.07638727 0.08812655 0.08213063 -0.066901356 0.08063108
-0.07249341 -0.02321262 0.08138469 -0.104867026 0.0960852 0.044468068 -0.056854185 0.056669194
0.031182183 -0.07027185 -0.07708889 0.02831174 -0.13712701 0.15258224 -0.12759158 0.14690894
-0.042356648 0.09820553 -0.043836948 -0.0064907856 0.07201269 -0.06634183 -0.102499545 0.03489135
-0.011064303 -0.0060835853 0.07343018 0.061083026 -0.06822652 -0.10833877 -0.19519143 0.11816402
-0.020493276 -0.0724686 -0.06056853 -0.07907342 0.049743623 -0.10959691 0.06632287 0.1524518
00000000: 6120 b93c fdf4 87bd a204 0c3d 8ccc 823c
00000010: 4aa0 b9bc eb39 a23d b423 d8bc bfc3 e23b
00000020: 2583 2b3d 2065 7a3d 5a24 973d cb59 86bd
00000030: e8cb 033d 9246 f83c 6467 5abb 605d 443d
00000040: 945b f93c 2e18 93bd 7d2c 57bd dab1 263d
00000050: 6d51 27bd ba56 a2bc 3977 023d 6cff 9e3c
00000060: 760f 50bd ce93 023d 5061 c73d d56a bb3d
00000070: bdeb e43d 928e a7bd 0646 16bd 786f ae3d
00000080: 30de fe3b f5dc 09bd 79f7 973c 1dc7 ffbc
00000090: fa39 13bd a8be cebc 6236 d93c 7802 ad3d
000000a0: 8d9e 9b3c 4c07 d73b 7e80 ffbd 805f 0dbc
000000b0: 0d11 353e b070 30bb 6b17 19be 8025 59bd
000000c0: 9083 00bd ae22 333c c943 253d a451 853d
000000d0: c495 abbd 7c72 973d e0d5 463b 76c8 02bd
000000e0: 73db 9bbc 84aa 8bbc 830f 29bd 664e 42bd
000000f0: a686 1a3e b2c5 06be 44d7 6d3d cef5 553d
00000100: afe5 273d e2c1 68bd 8bce ff3c 9070 59bd
00000110: 703c 5c3d 8842 1a3e 5dbd acbb 1ccf 03be
00000120: 8bed 1f3e f68a f6bc 0f3b ac3d 2aed 153d
00000130: a8be fa3d 8da9 3dbd c995 58bd cc87 453d
00000140: b1bb b13c 3a09 a73c 49ba b8bc ee70 9cbd
00000150: b17b b43d 1b34 a83d 9403 89bd e821 a53d
00000160: 6d77 94bd 6428 bebc 04ad a63d 86c4 d6bd
00000170: 51c8 c43d 2624 363d efdf 68bd f51d 683d
00000180: c771 ff3c b0ea 8fbd c8e0 9dbd 06ee e73c
00000190: 066b 0cbe 853e 1c3e 5ea7 02be 4c6f 163e
000001a0: 2a7e 2dbd fb1f c93d 5f8e 33bd a8b0 d4bb
000001b0: 647b 933d 3ade 87bd 48eb d1bd 3bea 0e3d
000001c0: 0d47 35bc d058 c7bb 9062 963d 3232 7a3d
000001d0: 59ba 8bbd b8e0 ddbd 43e0 47be faff f13d
000001e0: 84e1 a7bc 6b6a 94bd b516 78bd 3ff1 a1bd
000001f0: f8bf 4b3d 5874 e0bd 49d4 873d 531c 1c3e

arith.constant5 f4 [128]
0.08080044 0.078068644 0.03222347 -0.05684065 -0.040917642 0.06884669 0.0035088882 -0.025846437
-0.1231392 0.00975984 0.057268564 -0.058236077 0.05109141 0.035009228 -0.08330703 0.1154551
0.011257116 -0.09984442 -0.005123254 0.022723816 -0.015902411 -0.08158375 -0.022776973 -0.01804462
-0.04696004 0.046401795 -0.10781617 0.035993166 -0.074902855 -0.116558574 -0.012491673 0.052840475
-0.0060219057 0.029069953 0.06376522 -0.05845919 0.025854282 -0.1038474 -0.062160354 -0.07736184
0.055184532 0.040609796 0.16921213 -0.026195638 0.04404339 -0.04390613 -0.05226746 -0.16699724
-0.00676981 0.054138154 -0.053153716 0.09152379 -0.08315411 -0.005007622 -0.0027170144 0.01402889
-0.00042250194 0.037804887 0.04366981 0.056224354 -0.08486676 0.031500593 0.028879203 0.0055486234
-0.04182836 -0.0385317 -0.120234124 -0.074764535 -0.1625683 0.035016943 0.07272669 -0.08272852
0.114352986 -0.025555149 -0.064358205 -0.016745292 0.13320991 -0.010849819 -0.03689675 -0.18678471
-0.0830212 0.02484138 0.012127027 0.06784015 -0.06290735 0.01691654 -0.16157636 0.097486235
-0.20046008 -0.017714825 -0.024635581 -0.12575932 0.010899443 -0.055936955 0.057634722 0.0899957
0.029709939 -0.11401642 -0.09492612 -0.09053666 -0.0742636 0.13342158 0.011717685 0.20910662
0.100174084 -0.16332208 0.10228694 -0.10241185 -0.06190827 -0.116445646 -0.105293125 -0.0042128763
-0.07278435 0.0008770786 -0.084794655 -0.15231341 0.010325968 -0.0026138388 -0.11276291 0.09888941
-0.09855236 -0.0260498 -0.021068618 -0.10804886 -0.13840319 -0.018260444 -0.035930716 -0.0245708
00000000: b37a a53d 74e2 9f3d c2fc 033d bed1 68bd
00000010: 4299 27bd 7eff 8c3d 60f5 653b e8bb d3bc
00000020: 6830 fcbd bce7 1f3c 7192 6a3d f488 6ebd
00000030: 3a45 513d d665 0f3d e09c aabd b973 ec3d
00000040: c46f 383c 3b7b ccbd f8e0 a7bb 4c27 ba3c
00000050: c645 82bc 6215 a7bd c696 babc 50d2 93bc
00000060: 2c59 40bd cf0f 3e3d b9ce dcbd 926d 133d
00000070: ab66 99bd 43b6 eebd e0a9 4cbc 416f 583d
00000080: 6853 c5bb 1c24 ee3c 5797 823d e772 6fbd
00000090: 5ccc d33c f2ad d4bd db9b 7ebd e26f 9ebd
000000a0: 2d09 623d 7556 263d f245 2d3e 3c98 d6bc
000000b0: d766 343d ead6 33bd 6716 56bd 5301 2bbe
000000c0: 48d5 ddbb f8bf 5d3d b6b7 59bd d370 bb3d
000000d0: b44c aabd fa16 a4bb f00f 32bb 6ed9 653c
000000e0: 4083 ddb9 4cd9 1a3d 1ddf 323d 824b 663d
000000f0: a0ce adbd c406 013d 1494 ec3c 3ad1 b53b
00000100: 3754 2bbd 6ad3 1dbd 4f3d f6bd 261e 99bd
00000110: 4e78 26be ed6d 0f3d bbf1 943d 926d a9bd
00000120: e631 ea3d 0859 d1bc 3cce 83bd 6c2d 89bc
00000130: 2e68 083e 70c3 31bc 0c21 17bd 7e44 3fbe
00000140: 0507 aabd 2680 cb3c 70b0 463c c7ef 8a3d
00000150: 92d5 80bd 8e94 8a3c 4674 25be dda6 c73d
00000160: 6845 4dbe ae1e 91bc 8fd0 c9bc 0dc7 00be
00000170: 9493 323c 261e 65bd 6312 6c3d aa4f b83d
00000180: 4262 f33c 7181 e9bd a068 c2bd 496b b9bd
00000190: 8417 98bd ab9f 083e 88fb 3f3c 0c20 563e
000001a0: 1228 cd3d e73d 27be d17b d13d 4ebd d1bd
000001b0: 8793 7dbd 0e7b eebd eca3 d7bd 2b0c 8abb
000001c0: f60f 95bd c0eb 653a d2a8 adbd 0cf8 1bbe
000001d0: 402e 293c f04c 2bbb 3ef0 e6bd 8886 ca3d
000001e0: d2d5 c9bd 6466 d5bc 1898 acbc b948 ddbd
000001f0: 91b9 0dbe ed96 95bc 162c 13bd b448 c9bc

arith.constant6 f4 [128]
0.02234664 0.119661435 0.07463989 -0.08954203 -0.036094874 0.1357077 0.055741433 -0.041830454
0.051097438 0.044339195 0.038259696 -0.020634502 0.11860406 0.016887974 -0.087711066 0.012546161
-0.080468446 -0.041264378 -0.0018256127 0.10426578 -0.010036999 -0.031725857 0.041696344 -0.02511191
0.020146342 0.06083641 0.0912066 -0.025981907 0.09241526 0.06345143 -0.10734224 0.060031563
0.19008279 -0.12298034 -0.06562807 -0.049077008 0.1466686 0.025131956 -0.062082835 0.041253723
0.068654954 0.038389742 -0.05484882 0.032495573 -0.02354879 -0.115282424 0.0075330343 0.058954857
-0.022385526 -0.10370573 -0.069410525 0.033766434 0.009231055 0.014784351 -0.023240305 -0.020572608
-0.041365176 0.11623112 0.123899184 -0.012671519 -0.02573728 0.007869026 0.08099211 -0.025244806
-0.039228298 -0.010177353 -0.11641374 0.024440981 -0.015334699 0.033809893 0.075970516 0.050561562
-0.019232774 -0.15264827 0.014161689 -0.057501815 0.13871846 -0.099651724 -0.081112474 -0.12982287
0.07245801 0.019886477 0.0010530837 -0.064516515 0.06416133 -0.101696305 -0.09678001 0.010499268
-0.013283949 0.063649654 0.13256668 0.042759225 0.08266092 -0.06638674 0.08737949 0.078558125
0.055407513 -0.0013913235 0.1185784 -0.056191426 -0.08628544 0.14790066 0.03249479 0.0086726565
-0.040246602 -0.072731316 -0.13999316 -0.016408905 -0.004942062 0.06328727 0.011316088 -0.033448596
-0.14228821 -0.032901324 0.12288798 0.08379555 0.10391386 -0.05668039 0.053637117 0.013794968
0.094242886 -0.05575486 -0.08143869 0.12417276 0.039476063 -0.078652665 -0.024631865 0.03599817
00000000: 4d10 b73c 0e11 f53d ccdc 983d d061 b7bd
00000010: 38d8 13bd f6f6 0a3e 2151 643d 6956 2bbd
00000020: 8c4b 513d 049d 353d 33b6 1c3d b009 a9bc
00000030: afe6 f23d a658 8a3c dca1 b3bd 6a8e 4d3c
00000040: a4cc a4bd d604 29bd 6649 efba 4c89 d53d
00000050: 3a72 24bc f9f2 01bd c9c9 2a3d 7eb7 cdbc
00000060: f109 a53c 992f 793d 87ca ba3d 02d8 d4bc
00000070: 3644 bd3d d3f2 813d 40d6 dbbd a8e3 753d
00000080: 10a5 423e 1edd fbbd 0268 86bd f904 49bd
00000090: 4b30 163e 88e1 cd3c 924a 7ebd aaf9 283d
000000a0: f89a 8c3d 903e 1d3d 28a9 60bd 141a 053d
000000b0: 64e9 c0bc 3119 ecbd acd7 f63b a67a 713d
000000c0: da61 b7bc ab63 d4bd 1b27 8ebd ac4e 0a3d
000000d0: da3d 173c 103a 723c 7462 bebc e387 a8bc
000000e0: 886e 29bd 950a ee3d dbbe fd3d 349c 4fbc
000000f0: fdd6 d2bc 16ed 003c 31df a53d 32ce cebc
00000100: daad 20bd eabe 26bc 546a eebd 7438 c83c
00000110: 643e 7bbc 3e7c 0a3d 6e96 9b3d a419 4f3d
00000120: 0d8e 9dbc d44f 1cbe 6e06 683c 0687 6bbd
00000130: 360c 0e3e 3416 ccbd 4c1e a6bd 49f0 04be
00000140: dd64 943d f7e8 a23c a007 8a3a 3c21 84bd
00000150: 0467 833d 2746 d0bd 9934 c6bd 1f05 2c3c
00000160: eca4 59bc c05a 823d 8fbf 073e 4c24 2f3d
00000170: 214a a93d c5f5 87bd 05f4 b23d 15e3 a03d
00000180: fdf2 623d 125d b6ba 3bd9 f23d fb28 66bd
00000190: 6cb6 b0bd 4573 173e 4219 053d c217 0e3c
000001a0: 9fd9 24bd 28f4 94bd 5e5a 0fbe f86b 86bc
000001b0: 05f1 a1bb c29c 813d 1d67 393c 6501 09bd
000001c0: 00b4 11be 8ac3 06bd b1ac fb3d 009d ab3d
000001d0: cad0 d43d b229 68bd 98b2 5b3d 4a04 623c
000001e0: 6a02 c13d 355f 64bd 54c9 a6bd 4a4e fe3d
000001f0: a7b1 213d a614 a1bd c4c8 c9bc d172 133d

arith.constant7 f4 [128]
-0.030341573 0.0107336715 0.0110549405 0.051299833 0.035862997 0.0040362584 -0.010120012 0.06876935
-0.08984281 -0.012903191 -0.015415529 0.010198457 -0.0124233365 0.1274071 0.02417581 0.09783797
-0.02965988 -0.008404611 0.059783883 0.025353177 0.049886744 0.020393535 0.0466 0.020148987
-0.01349269 0.00032497942 0.047651075 -0.032954067 0.04237076 0.03954683 -0.026181325 0.010833719
0.15095867 0.029539183 0.08184933 0.06558357 0.1270974 -0.010340154 -0.05560132 0.072279364
0.05412144 0.17800654 0.066202566 0.10747108 0.041957006 0.050430316 -0.09836634 0.018433934
0.079493895 -0.08614823 -0.08911693 0.03562316 -0.020513248 0.1083633 0.16778369 0.08677453
0.06453974 -0.016562805 0.09057948 -0.04873041 0.1287364 -0.071239084 0.08002525 0.09922175
0.109481856 0.18254274 -0.12518257 0.012735157 -0.061820857 0.10075409 0.05218233 -0.04692407
0.05529532 0.0135467015 -0.05706772 0.028816309 -0.02604105 -0.027949102 0.07791123 0.11201173
-0.1089235 -0.031692106 0.050063502 -0.08862953 0.03780881 -0.05210242 0.16088568 0.041310858
-0.05982069 0.102883846 0.090625845 -0.01012433 -0.08272074 0.11039602 0.06467593 0.023739956
0.029821027 0.14975111 0.09548382 0.10354098 0.019324984 -0.10609619 -0.19347626 0.09053202
0.029630553 -0.20917408 -0.08031421 0.12622315 -0.12223575 0.05564814 0.050975073 -0.10368098
-0.06308194 0.043307737 0.25799295 -0.14055613 0.11623537 -0.11029385 0.074469715 0.119169235
-0.015967686 -0.091631904 0.07177408 0.18466723 0.14603876 -0.12714265 -0.03756331 -0.21651715
00000000: e48e f8bc 48dc 2f3c c81f 353c c61f 523d
00000010: 14e5 123d 9742 843b 68ce 25bc f2d6 8c3d
00000020: 82ff b7bd e867 53bc 6a91 7cbc 6e17 273c
00000030: 408b 4bbc 0277 023e 590c c63c 465f c83d
00000040: 47f9 f2bc 7eb3 09bc f2df 743d 77b1 cf3c
00000050: 0b56 4c3d 5810 a73c a4df 3e3d 7d0f a53c
00000060: 7210 5dbc 0062 aa39 c62d 433d d8fa 06bd
00000070: f68c 2d3d dbfb 213d 387a d6bc e97f 313c
00000080: e994 1a3e 28fc f13c 9fa0 a73d ae50 863d
00000090: d225 023e c069 29bc 36be 63bd 3407 943d
000000a0: 71ae 5d3d 5947 363e 3695 873d cc19 dc3d
000000b0: 1cdb 2b3d 0590 4e3d 4b74 c9bd c302 973c
000000c0: b2cd a23d 7c6e b0bd f082 b6bd 97e9 113d
000000d0: 660b a8bc 94ed dd3d 7dcf 2b3e d8b6 b13d
000000e0: 692d 843d b8ae 87bc bc81 b93d 8a99 47bd
000000f0: 7ad3 033e cce5 91bd 47e4 a33d c634 cb3d
00000100: 0638 e03d 7cec 3a3e dc2f 00be 1fa7 503c
00000110: de37 7dbd 2958 ce3d 24bd 553d 7433 40bd
00000120: 587d 623d fcf2 5d3c d7bf 69bd 2e10 ec3c
00000130: 0a54 d5bc 84f5 e4bc ec8f 9f3d 6866 e53d
00000140: 4913 dfbd 95cf 01bd 630f 4d3d 6683 b5bd
00000150: 69dd 1a3d 5969 55bd 37bf 243e 9335 293d
00000160: 8a06 75bd c4b4 d23d 0b9a b93d 85e0 25bc
00000170: 7e69 a9bd 4f17 e23d d074 843d 4c7a c23c
00000180: 3a4b f43c 5b58 193e 058d c33d 4b0d d43d
00000190: 6e4f 9e3c f648 d9bd a41e 46be da68 b93d
000001a0: c6bb f23c bb31 56be c77b a4bd a440 013e
000001b0: bd56 fabd 4eef 633d 3dcb 503d b256 d4bd
000001c0: 1b31 81bd 7463 313d a717 843e f2ed 0fbe
000001d0: cf0c ee3d bee1 e1bd 9483 983d 000f f43d
000001e0: aace 82bc 82a9 bbbd 4afe 923d 6819 3d3e
000001f0: 2f8b 153e af31 02be fcdb 19bd acb6 5dbe

arith.constant8 f4 [64]
0.0074886438 0.1479657 0.084355675 0.071845025 -0.09555969 -0.11830574 -0.0679123 0.08117029
-0.06655629 -0.109794 -0.09604465 0.092319384 0.07094537 0.033757307 -0.007513143 0.03439603
-0.08831172 0.1305889 0.0009031317 -0.04727374 0.063339666 0.025982577 0.059997153 0.009768305
-0.023710342 -0.09757574 0.10374398 0.121300824 0.07284504 -0.095624246 -0.030310132 0.13218711
0.06578499 -0.08784805 -0.12208929 -0.101467974 -0.1313804 -0.09460317 0.022108449 -0.09722202
0.113574624 0.04182271 -0.08474739 -0.12245777 0.14175804 0.077381685 -0.12299383 0.09787506
-0.20104083 -0.121543765 0.15682927 -0.025417149 -0.05545868 0.10304734 0.05110026 0.14723967
0.12904897 0.044735376 0.15278114 0.16384254 -0.16347933 -0.08750489 -0.056797314 -0.19430302
00000000: 4c63 f53b 5284 173e abc2 ac3d 7c23 933d
00000010: ccb4 c3bd 484a f2bd 9b15 8bbd 9c3c a63d
00000020: aa4e 88bd addb e0bd 0fb3 c4bd f211 bd3d
00000030: ce4b 913d 1a45 0a3d d030 f6bb dae2 0c3d
00000040: c6dc b4bd 19b9 053e 24c0 6c3a 1ca2 41bd
00000050: 3ab8 813d 6ad9 d43c 93bf 753d 3e0b 203c
00000060: 313c c2bc cad5 c7bd b977 d43d 916c f83d
00000070: c82f 953d a5d6 c3bd f44c f8bc 0f5c 073e
00000080: 48ba 863d aee9 b3bd f309 fabd 71ce cfbd
00000090: 9588 06be 4fbf c1bd c71c b53c 571c c7bd
000000a0: d099 e83d 4a4e 2b3d 0a90 adbd 24cb fabd
000000b0: 0529 113e 4a7a 9e3d 30e4 fbbd b872 c83d
000000c0: a6dd 4dbe f0eb f8bd da97 203e a037 d0bc
000000d0: a428 63bd 7c0a d33d 824e 513d ffc5 163e
000000e0: 6a25 043e 713c 373d a972 1c3e 57c6 273e
000000f0: 2067 27be c435 b3bd 4da4 68bd 5ff7 46be

arith.constant9 f4 [32]
-0.0113324495 0.2169847 -0.03454283 0.19932075 0.09060223 0.08885838 0.15362492 -0.27048475
-0.03864108 0.0433494 0.11307391 0.041620675 -0.04424488 -0.024358738 -0.029585272 -0.083408095
0.09080238 0.10319804 0.03467617 -0.10843293 0.009534401 0.0039021038 -0.07369186 0.09455035
-0.07220643 0.034502707 0.01861661 0.056656446 -0.23906465 -0.1364343 -0.09320102 0.009436429
00000000: bdab 39bc 3d31 5e3e c87c 0dbd bd1a 4c3e
00000010: a98d b93d 62fb b53d da4f 1d3e fa7c 8abe
00000020: 1c46 1ebd 248f 313d 4b93 e73d 717a 2a3d
00000030: 1f3a 35bd fa8b c7bc d05c f2bc ddd1 aabd
00000040: 99f6 b93d 7e59 d33d 9a08 0e3d 1612 debd
00000050: 2d36 1c3c 70ba 7f3b c2eb 96bd 9da3 c13d
00000060: f7e0 93bd b652 0d3d dc81 983c 9710 683d
00000070: 5dcd 74be 6fb5 0bbe 2de0 bebd 409b 1a3c

arith.constant10 f4 [128, 1, 1, 32]
0.47160515 0.37211812 0.40103018 0.3746049 -0.06896967 0.2605705 0.07070848 -0.9240808
0.4269737 0.13354322 -0.9941029 0.6342056 -0.4616379 0.18513894 0.36134514 0.284625
-0.019312715 -0.07767665 -0.47496548 0.37108332 0.07376276 0.16648076 0.33716378 -0.054615185
0.035452764 -1.0949103 -0.0134723475 0.14092675 0.48632833 -0.084008805 -0.4366148 -0.26734358
0.17347385 -0.021693261 -0.11296393 -0.15974641 0.39549226 -0.47050834 0.6114846 0.28668365
-0.42802137 0.19370788 0.019765394 0.7559699 -0.1107706 0.2178419 0.2724942 -0.41706914
-0.13347103 0.8206922 -0.21058276 0.04751411 0.7518122 0.4322094 0.26764032 -0.3329556
0.015886554 0.17551833 0.041035045 0.31300423 0.14939332 -0.009248305 -0.07470267 0.24350762
0.11290069 0.025499696 -0.14675029 0.17314705 0.44541246 -0.190016 -0.22627659 0.35965094
-0.33580688 -0.04630834 0.22341748 -0.82235646 -0.113735884 -0.3210373 -0.24400178 -0.73100555
-0.020727448 0.21958932 -0.5577058 -0.12438279 -0.48266158 -0.8613608 0.21978389 -0.5773461
-0.102660924 -1.0079894 -0.6278199 0.07008313 -0.011879676 -0.099133156 0.003244249 0.81569046
-0.96835375 -0.4627432 -0.23495953 0.4126298 0.11579224 0.8078829 -0.6031052 0.4655421
-0.08258398 0.8299 0.4283258 0.82719404 -1.3473549 -1.0675727 1.3794328 -0.7658022
-0.8052089 -0.61767596 0.42263722 0.16042016 0.22222911 -0.71649456 1.1820831 0.32923117
0.7085577 -0.2895135 0.6066984 0.070025414 0.6407837 1.1284612 0.79634273 1.1505375
-0.29694754 0.5162622 0.3280194 -0.22679615 -0.50228345 0.9307825 -0.95660996 -0.13614655
-0.11216506 -0.27972072 -0.20533186 -0.638693 1.2558303 -0.28510755 1.2118826 -0.12715334
0.68832177 -0.025584321 -0.32623288 0.97835046 -0.46709424 -0.14289968 0.060332026 -0.062374678
-0.19299188 0.044764757 -0.2933083 -0.61955255 -0.33918703 -0.5078057 -0.60361016 -0.3166796
0.5035301 0.13058698 0.40571073 -0.34531975 0.25960952 0.673907 -0.5381587 0.43912107
-0.2920458 0.077008314 -0.5895053 -0.65739065 1.367342 -0.054961517 1.0659884 0.43903133
0.5583707 -0.30308846 0.83750814 -0.10918646 -0.40387645 -0.2728908 -0.2018955 0.2193703
0.27041125 0.5872657 0.45666298 -0.32546678 -0.2149242 -0.44438156 0.088538505 0.34077898
0.63270885 0.49857002 0.5238903 0.08021141 1.6249496 1.3080877 0.76190835 1.1694101
-0.44468275 -0.6784059 0.07731502 -0.40852958 -0.8635531 -0.19692153 0.66023487 1.6185008
-0.79548764 1.2219774 0.2663956 0.35049438 -0.79166794 0.54975504 -0.23985083 -0.07889617
-0.27903795 0.3577031 0.9780246 1.0133317 0.6743368 -1.3364815 0.707247 0.4875588
0.45574042 0.004475173 -0.32245317 0.7043631 -0.114951506 -0.22106594 0.14008436 -0.44244158
-1.0822152 -0.7624891 -0.0032473959 0.3454596 0.78376776 0.013226143 0.19746265 -0.39007667
-0.02937819 -0.3334916 -0.8141127 0.29857394 -0.67368424 0.15663415 0.3733615 0.041088425
-0.47984248 -0.039098855 0.24959078 0.14570189 0.33965254 -0.20789154 -0.12825285 0.064452566
00000000: 3b76 f13e 4486 be3e d453 cd3e 37cc bf3e
00000010: f83f 8dbd 7f69 853e 9ccf 903d 8f90 6cbf
00000020: 4c9c da3e 8ebf 083e 877d 7ebf 4c5b 223f
00000030: ce5b ecbe 1095 3d3e 3b02 b93e 5eba 913e
00000040: b335 9ebc ef14 9fbd ad2e f3be a2fe bd3e
00000050: ee10 973d ef79 2a3e bba0 ac3e 2cb4 5fbd
00000060: eb36 113d 0526 8cbf 1fbb 5cbc 1a4f 103e
00000070: 0700 f93e cf0c acbd fa8b dfbe 42e1 88be
00000080: 21a3 313e 11b6 b1bc a259 e7bd 9094 23be
00000090: f67d ca3e 78e6 f0be 418a 1c3f 33c8 923e
000000a0: 9e25 dbbe 5c5b 463e 09eb a13c 3e87 413f
000000b0: b2db e2bd f211 5f3e 5c84 8b3e 168a d5be
000000c0: a1ac 08be e218 523f 02a3 57be 289e 423d
000000d0: c476 403f 8d4a dd3e 2708 893e 2879 aabe
000000e0: 8524 823c 14bb 333e 5d14 283d 1742 a03e
000000f0: 90fa 183e 3486 17bc b7fd 98bd 105a 793e
00000100: 7a38 e73d bde4 d03c b545 16be 764d 313e
00000110: 1a0d e43e 8e93 42be 0db5 67be 2b24 b83e
00000120: e1ee abbe d0ad 3dbd 8dc7 643e f485 52bf
00000130: 5cee e8bd 005f a4be 9adb 79be 2e23 3bbf
00000140: 9ccc a9bc 06dc 603e cfc5 0ebf 67bc febd
00000150: 6b1f f7be 2482 5cbf 070f 613e f4cc 13bf
00000160: e43f d2bd cc05 81bf ceb8 20bf be87 8f3d
00000170: f9a2 42bc 5306 cbbd 779d 543b 17d1 503f
00000180: 08e6 77bf adec ecbe 3b99 70be 3744 d33e
00000190: 7b24 ed3d 6ad1 4e3f 1a65 1abf 895b ee3e
000001a0: ca21 a9bd 5474 543f 854d db3e fdc2 533f
000001b0: 2076 acbf 39a6 88bf 4191 b03f 9d0b 44bf
000001c0: 2c22 4ebf 0320 1ebf e863 d83e 2f45 243e
000001d0: 0790 633e 306c 37bf 804e 973f fd90 a83e
000001e0: 0a64 353f 1d3b 94be 9650 1b3f 7c69 8f3d
000001f0: 670a 243f 6b71 903f 1edd 4b3f d044 933f
00000200: 8209 98be c229 043f 29f2 a73e 403d 68be
00000210: a695 00bf c347 6e3f 64e4 74bf 006a 0bbe
00000220: ccb6 e5bd 8e37 8fbe 8442 52be 6281 23bf
00000230: 0cbf a03f 9ef9 91be f81e 9b3f 7c34 02be
00000240: db35 303f 3696 d1bc ff07 a7be 2d75 7a3f
00000250: fa26 efbe 4b54 12be b71e 773d 977c 7fbd
00000260: aa9f 45be 405b 373d 812c 96be ff9a 1ebf
00000270: eca9 adbe 8eff 01bf 3286 1abf d423 a2be
00000280: 59e7 003f 98b8 053e 51b9 cf3e c0cd b0be
00000290: 8aeb 843e 2b85 2c3f c5c4 09bf 7ad4 e03e
000002a0: 0787 95be 89b6 9d3d d2e9 16bf c14a 28bf
000002b0: 1005 af3f 541f 61bd 4f72 883f b7c8 e03e
000002c0: 62f1 0e3f 692e 9bbe ef66 563f 279d dfbd
000002d0: e5c8 cebe 58b8 8bbe b2bd 4ebe 9ca2 603e
000002e0: 5873 8a3e 0b57 163f bbcf e93e 95a3 a6be
000002f0: 1715 5cbe fb85 e3be ad53 b53d 957a ae3e
00000300: 35f9 213f 9244 ff3e ad1d 063f e145 a43d
00000310: 59fe cf3f 6b6f a73f 6d0c 433f 3baf 953f
00000320: 75ad e3be 02ac 2dbf 5657 9e3d ca2a d1be
00000330: d111 5dbf cca5 49be 2705 293f 092b cf3f
00000340: 14a5 4bbf c169 9c3f 0165 883e 0074 b33e
00000350: c0aa 4abf bfbc 0c3f 759b 75be 5194 a1bd
00000360: 10de 8ebe dc24 b73e d25f 7a3f dab4 813f
00000370: 56a1 2c3f d311 abbf 240e 353f 4fa1 f93e
00000380: cf56 e93e 79a4 923b 9518 a5be 2451 343f
00000390: b26b ebbd 1c5f 62be 4672 0f3e b487 e2be
000003a0: 0786 8abf 7c32 43bf 43d2 54bb 15e0 b03e
000003b0: 01a5 483f 77b2 583c a633 4a3e 21b8 c7be
000003c0: 88aa f0bc 69bf aabe b169 50bf afde 983e
000003d0: 9276 2cbf b464 203e 3d29 bf3e 564c 283d
000003e0: eaad f5be 1f26 20bd ba94 7f3e e032 153e
000003f0: f0e6 ad3e 85e1 54be b754 03be b5ff 833d

arith.constant11 f4 [128, 1, 1, 32]
0.73923016 -0.5351427 1.1710445 -0.040289864 -0.039156616 -1.2480524 -0.16712333 -0.34082317
-0.649579 -0.77761406 -0.55324155 -0.28282654 -0.5571671 0.16640018 -0.15170425 0.30250877
-0.3190315 1.1523392 -0.0758016 0.54615796 -0.034347612 0.25475568 -0.14235646 -0.97231346
-0.7863094 -0.019565305 -0.13411084 -0.13120237 -0.4914209 -0.20710176 0.020037176 -0.4082797
0.78665656 -0.6744215 -0.38962135 0.2822211 -0.0041079093 1.0765195 1.2601544 0.13284905
-0.8879884 0.21091978 -0.56539685 1.064624 1.8480814 -0.32752022 -0.8085357 0.22633769
-1.2025719 -1.2794114 1.2317616 0.71771985 0.53787947 1.3516586 0.2656102 0.82352835
0.42839274 0.72987396 0.05920366 0.24585322 0.0074584964 -0.31697598 0.22556187 -1.0331043
0.24128824 -0.10861862 0.10413403 0.28797284 -0.63666695 0.77836317 0.4609424 -0.4115364
0.5221133 0.34481084 -0.094764195 -0.55918753 -0.3909672 0.73260665 0.3524935 0.4572278
0.45895267 0.5623017 -0.47009626 0.4382855 0.18876286 -0.08696124 0.45268407 0.05569613
-0.19741803 0.82218415 0.32159314 -0.4839295 0.52646685 0.09061543 0.33364585 -0.18519047
0.020632278 -0.14706652 0.9536598 -0.25301203 0.7865465 0.28165123 -0.89271986 -0.072552
-0.62009925 0.015488076 -0.36525688 -0.35784474 -0.095765926 0.30259818 -0.26719904 0.855542
0.017510302 -0.117801405 -0.06954641 -0.69627064 -0.16312352 -0.7906857 0.53427917 -0.22769234
-0.55098665 0.30983442 -0.2367707 0.36382127 1.0510707 0.13572063 0.17866859 0.07058337
0.64602435 -0.19073378 0.3026359 0.8201365 0.07225937 1.5900775 0.48436075 -0.12237421
-0.67988324 0.31896514 0.7256383 0.21526597 -0.40817866 0.73231137 0.75141686 -0.306865
-0.44738114 0.05217838 0.089139014 -0.39853784 1.2778268 0.012058931 0.34908745 -0.1476548
-0.35186747 0.9561233 0.7170902 -0.20458983 0.59688705 -0.47838408 0.24204113 -0.6225391
-0.49449724 -0.18474796 -0.027167996 -0.03852095 0.9073172 -0.3774068 0.85718673 -0.05582479
-0.1860748 -0.24034967 0.44615954 -0.3290596 -0.8384086 -0.18790704 -0.20286575 0.30034024
0.14418164 -0.8675955 1.5555274 0.021809328 0.26974875 0.16345315 -0.73512626 -0.8318276
0.23211142 -0.97270125 -0.46078688 0.26851907 -0.010906948 0.4818058 -1.2816259 0.80655456
-0.32787937 0.943525 -0.12425635 -0.21721208 -0.18939784 -0.45666727 0.7901369 -0.37912744
0.17013131 0.21801065 -0.42089579 0.33636808 -0.42974544 -1.0427307 -0.41064474 -0.4465474
0.37153098 -0.2106758 -0.08510933 0.2541701 -0.011403145 -0.6929879 -0.28388155 0.4542631
0.20112132 -0.48973498 0.7210613 -0.08187681 0.14095463 -0.58273023 0.22592236 0.073941246
-0.27273864 -0.41070098 -0.08092402 0.45881504 -0.64815015 0.14821023 0.69318736 0.7157523
0.23861952 1.268892 -0.18826655 0.32507008 0.18597041 0.1313956 -0.40276587 -0.77601403
0.44821072 -0.336447 1.0058324 0.963767 0.018619457 -0.4815084 0.1482174 0.38234544
-0.74827325 -0.82590854 0.40106934 -0.6397759 -0.41497526 -0.048928935 -0.3156952 -0.44820657
00000000: 303e 3d3f 1dff 08bf c9e4 953f fc06 25bd
00000010: b062 20bd 2ec0 9fbf 6122 2bbe 6080 aebe
00000020: cf4a 26bf b711 47bf 3da1 0dbf a4ce 90be
00000030: 81a2 0ebf cf64 2a3e 5c58 1bbe 6ee2 9a3e
00000040: 1958 a3be da7f 933f df3d 9bbd 02d1 0b3f
00000050: 15b0 0cbd 566f 823e e4c5 11be 89e9 78bf
00000060: 934b 49bf 6b47 a0bc 5a54 09be ea59 06be
00000070: 859b fbbe 7c12 54be 0125 a43c 090a d1be
00000080: 5362 493f e3a6 2cbf 737c c7be 497f 903e
00000090: a49b 86bb 64cb 893f bd4c a13f 9509 083e
000000a0: 3553 63bf 5bfb 573e d9bd 10bf 9945 883f
000000b0: ee8d ec3f bbb0 a7be 32fc 4ebf 11c5 673e
000000c0: e0ed 99bf c1c3 a3bf 5daa 9d3f 7dbc 373f
000000d0: 78b2 093f 2603 ad3f 0ffe 873e c1d2 523f
000000e0: 4b56 db3e 05d9 3a3f 897f 723d f2c0 7b3e
000000f0: 6766 f43b ad4a a2be b1f9 663e c33c 84bf
00000100: 4414 773e 7073 debd 3944 d53d 2d71 933e
00000110: 9bfc 22bf cf42 473f a400 ec3e e6b4 d2be
00000120: 38a9 053f 0c8b b03e bb13 c2bd ea26 0fbf
00000130: da2c c8be 1c8c 3b3f 077a b43e c319 ea3e
00000140: d8fb ea3e 01f3 0f3f 75b0 f0be f566 e03e
00000150: 0d4b 413e bc18 b2bd 35c6 e73e a021 643d
00000160: f427 4abe a97a 523f dba7 a43e 9cc5 f7be
00000170: 88c6 063f 9594 b93d a1d3 aa3e 92a2 3dbe
00000180: 0605 a93c 9b98 16be 0c23 743f cb8a 81be
00000190: 1d5b 493f 9734 903e 4a89 64bf 2596 94bd
000001a0: d3be 1ebf b3c1 7d3c f302 bbbe 6d37 b7be
000001b0: ed20 c4bd 26ee 9a3e 50ce 88be cd04 5b3f
000001c0: c471 8f3c dd41 f1bd 596e 8ebd cb3e 32bf
000001d0: da09 27be 616a 4abf 85c6 083f 2e28 69be
000001e0: 760d 0dbf 9ea2 9e3e 0574 72be c846 ba3e
000001f0: 7c89 863f 59fa 0a3e e6f4 363e 048e 903d
00000200: da61 253f b74f 43be 18f3 9a3e 77f4 513f
00000210: b8fc 933d a987 cb3f 22fe f73e 549f fabd
00000220: d40c 2ebf 664f a33e 6ec3 393f af6e 5c3e
00000230: cbfc d0be c278 3b3f db5c 403f 691d 9dbe
00000240: 240f e5be ffb8 553d 848e b63d 270d ccbe
00000250: d48f a33f d392 453c 97bb b23e d232 17be
00000260: f927 b4be 7fc4 743f 3993 373f ff7f 51be
00000270: 97cd 183f c2ee f4be a1d9 773e b95e 1fbf
00000280: be2e fdbe 922e 3dbe 6b8f debc 25c8 1dbd
00000290: f145 683f 773b c1be 9770 5b3f 89a8 64bd
000002a0: 648a 3ebe 391e 76be 066f e43e 807a a8be
000002b0: f2a1 56bf b46a 40be 0abc 4fbe 32c6 993e
000002c0: 5aa4 133e bd1a 5ebf 861b c73f 7aa9 b23c
000002d0: 821c 8a3e 4360 273e 3c31 3cbf a7f2 54bf
000002e0: 9eae 6d3e f302 79bf 42ec ebbe 557b 893e
000002f0: 0eb3 32bc 40af f63e 510c a4bf 5c7a 4e3f
00000300: cedf a7be db8a 713f 1d7a febd d86c 5ebe
00000310: 82f1 41be 4bd0 e9be 6946 4a3f fe1c c2be
00000320: e736 2e3e 2f3e 5f3e a77f d7be 7038 ac3e
00000330: 9807 dcbe 3378 85bf 0740 d2be dca1 e4be
00000340: 4f39 be3e 66bb 57be cd4d aebd 9522 823e
00000350: 42d4 3abc a867 31bf ec58 91be 2c95 e83e
00000360: bff2 4d3e 8bbe fabe 7997 383f 07af a7bd
00000370: 6956 103e cf2d 15bf 3158 673e 826e 973d
00000380: 66a4 8bbe 6647 d2be 7ebb a5bd cee9 ea3e
00000390: 2bed 25bf 6cc4 173e ba74 313f 8b3b 373f
000003a0: ad58 743e 0e6b a23f f2c8 40be 966f a63e
000003b0: 076f 3e3e 918c 063e 5437 cebe dba8 46bf
000003c0: e07b e53e c842 acbe 1ebf 803f 6fb9 763f
000003d0: d587 983c 4588 f6be 4dc6 173e c8c2 c33e
000003e0: d68e 3fbf be6e 53bf f658 cd3e 5ac8 23bf
000003f0: a377 d4be b569 48bd cda2 a1be 557b e5be

arith.constant12 f4 [128, 1, 1, 32]
0.9618935 0.50389385 0.6765277 -0.31366253 0.13613194 -0.31233063 -0.29707104 -1.2523607
0.27736259 -1.0870279 0.15869424 -0.6127442 0.19827263 0.24103467 0.6311501 -0.9911241
-0.43091303 -0.24349834 -0.07157691 -0.18775442 0.0090361135 -0.10897975 -1.4444215 0.15061146
0.21928366 -0.02201853 -0.6546103 -0.24863543 0.424132 0.2709217 -0.083177075 0.22730376
0.60426986 0.16154961 1.2034587 0.3337239 1.6559724 0.29339728 1.4686874 0.4109809
-2.3798606 0.2810662 -0.78708625 0.08609836 0.023303997 -2.0402074 1.6563956 -0.87951446
-0.11515379 -0.6872831 0.34945792 0.54022 1.1627576 -1.8894563 -0.0783673 0.5247802
-0.857845 0.5471795 -1.2221559 -3.0369954 0.039577972 0.8980342 -0.8693874 -1.6840154
-0.8915345 -0.20072433 -0.33015186 -1.0348812 0.23460081 -0.29737303 -1.0338161 0.059153542
0.49155504 -0.033083677 -0.29847807 1.4916672 0.3633525 -0.36242262 0.6335799 1.2540846
-0.17305791 0.48744738 0.32744864 -0.6790395 -0.0794575 -0.52348095 -1.4226621 -1.2406586
-0.035854574 -0.60833013 1.2484479 0.61677516 0.7266537 -0.06098145 -1.2513276 -0.61777925
-0.38840133 0.32972068 -0.20684105 0.5493773 1.1401569 -0.47148305 1.3615743 1.1114227
-0.6245977 -1.3140024 -0.19489829 0.2556984 -0.991201 0.661431 -0.9255537 0.44127268
0.025855104 -0.4065291 0.39781773 0.59727275 -2.0482953 0.19405127 0.025434026 0.95380545
-0.6868475 -0.5905045 -0.8814764 -0.2415096 -1.5862392 -0.47656924 -0.27052405 -0.95859313
0.7917486 0.8754528 1.2990557 0.5521912 -0.5764674 -0.102048166 -0.26188922 -1.3800603
0.23557244 0.047124166 0.48296878 -0.4315752 0.7029785 -0.09375399 -1.0207056 0.62584156
-0.21294925 0.6749508 -0.54215133 -1.1321207 0.9168269 0.1212439 -0.09293543 -0.90058327
0.13531068 -0.77650636 0.8025157 0.08922476 -0.21487227 0.22430897 -0.91264695 -0.96330595
-1.2657081 3.004055 -0.47197345 1.0101211 -0.3057408 0.59235334 -0.5245361 0.9346667
-0.5903302 -0.5167016 -2.0925062 -0.21923888 1.2306907 0.061270535 0.71573347 0.47823524
-0.77607584 -0.44306988 -0.97957736 1.6353495 -0.68877584 1.2437454 0.43131498 -1.3256475
0.051399976 0.21947876 1.2833035 -1.0467274 -1.1207757 -1.7305491 -0.4194675 0.17286243
0.35244456 0.31149104 -0.14650762 -0.47985926 0.4179848 -0.11718331 -0.49156842 -0.63909996
-0.26011166 0.38528523 0.7433625 -0.4652382 -0.5802627 -0.41410953 0.50898534 0.9421163
0.10751675 0.58492744 -0.7520671 -0.5655668 0.13960129 0.66712546 0.936333 0.45627534
-0.17538266 0.22201306 0.84091353 -0.048644852 -0.10778608 -0.53954196 -0.4158717 0.07903013
0.32679114 -0.546037 0.39286813 0.21098328 -0.5327972 0.78283083 -0.50151557 -0.018573044
-0.0038084951 -0.17875288 0.05070393 0.12268242 -0.14864275 -1.2979342 0.11804535 -0.370878
1.1736158 0.24675852 -0.23468581 -0.9588391 0.116614975 0.57266414 -0.59942263 -0.72750086
0.52599144 -0.65423226 -0.6777966 0.21239011 -0.124036536 0.46876264 0.2040026 0.5874661
00000000: a73e 763f 30ff 003f eb30 2d3f 6098 a0be
00000010: 2c66 0b3e cde9 9fbe b219 98be 5b4d a0bf
00000020: 7802 8e3e bb23 8bbf be80 223e cedc 1cbf
00000030: fb07 4b3e cbd1 763e 0e93 213f 4fba 7dbf
00000040: a2a0 dcbe a157 79be ea96 92bd b242 40be
00000050: 350c 143c c630 dfbd cee2 b8bf e439 1a3e
00000060: e58b 603e 3460 b4bc 8a94 27bf 499a 7ebe
00000070: d427 d93e 40b6 8a3e be58 aabd 51c2 683e
00000080: 6eb1 1a3f 436d 253e ef0a 9a3f dcdd aa3e
00000090: e7f6 d33f 2b38 963e f3fd bb3f 176c d23e
000000a0: a34f 18c0 e9e7 8f3e 7c7e 49bf 5654 b03d
000000b0: 06e8 be3c c292 02c0 c504 d43f dc27 61bf
000000c0: c0d5 ebbd c9f1 2fbf 26ec b23e dc4b 0a3f
000000d0: 3ed5 943f b4d9 f1bf 097f a0bd ff57 063f
000000e0: bb9b 5bbf f513 0c3f 9b6f 9cbf 225e 42c0
000000f0: 831c 223d 92e5 653f 2c90 5ebf d18d d7bf
00000100: 9b3b 64bf ae8a 4dbe aa09 a9be fd76 84bf
00000110: 323b 703e 4741 98be 1654 84bf fc4a 723d
00000120: 1aad fb3e c082 07bd 1ed2 98be f3ee be3f
00000130: 5709 ba3e 758f b9be 4b32 223f d885 a03f
00000140: 1836 31be b492 f93e 59a7 a73e 88d5 2dbf
00000150: 9dba a2bd d902 06bf cb19 b6bf e7cd 9ebf
00000160: 3fdc 12bd 86bb 1bbf 24cd 9f3f fae4 1d3f
00000170: fa05 3a3f afc7 79bd 812b a0bf c826 1ebf
00000180: 8adc c6be 26d1 a83e 24ce 53be fea3 0c3f
00000190: a9f0 913f 3a66 f1be 1148 ae3f 1943 8e3f
000001a0: a3e5 1fbf 3b31 a8bf 6b93 47be e7ea 823e
000001b0: 59bf 7dbf 8b53 293f 16f1 6cbf 7eee e13e
000001c0: 15ce d33c 9524 d0be c4ae cb3e dee6 183f
000001d0: 4517 03c0 60b5 463e 055b d03c 982c 743f
000001e0: 3dd5 2fbf 4e2b 17bf 70a8 61bf 4b4e 77be
000001f0: e309 cbbf e200 f4be 2182 8abe 5c66 75bf
00000200: 09b0 4a3f ad1d 603f 7547 a63f 675c 0d3f
00000210: 5e93 13bf a1fe d0bd 5816 86be d1a5 b0bf
00000220: e739 713e 4505 413d af47 f73e 6df7 dcbe
00000230: 66f6 333f 1802 c0bd 7ba6 82bf 2737 203f
00000240: 5e0f 5abe 93c9 2c3f 6eca 0abf 55e9 90bf
00000250: 2bb5 6a3f b94e f83d ee54 bebd a08c 66bf
00000260: e28e 0a3e 1fc9 46bf ab71 4d3f 79bb b63d
00000270: 7a07 5cbe 40b1 653e 3ba3 69bf 389b 76bf
00000280: b902 a2bf 7042 4040 81a6 f1be a64b 813f
00000290: 0f8a 9cbe 78a4 173f ff47 06bf 5146 6f3f
000002a0: e11f 17bf 8e46 04bf 9feb 05c0 2880 60be
000002b0: 4687 9d3f d0f6 7a3d 4f3a 373f 40db f43e
000002c0: e8ac 46bf 0eda e2be 95c5 7abf 2253 d13f
000002d0: 9d53 30bf 0d33 9f3f 51d5 dc3e d1ae a9bf
000002e0: c888 523d 0abf 603e 4a43 a43f 2afb 85bf
000002f0: 9475 8fbf a282 ddbf 72c4 d6be d902 313e
00000300: 9d73 b43e c17b 9f3e 1806 16be 1db0 f5be
00000310: 1b02 d63e cefd efbd dbae fbbe 0e9c 23bf
00000320: 5b2d 85be 1b44 c53e 014d 3e3f b433 eebe
00000330: 198c 14bf 2a06 d4be dd4c 023f 892e 713f
00000340: be31 dc3d cebd 153f 7887 40bf fcc8 10bf
00000350: a4f3 0e3e bcc8 2a3f 85b3 6f3f ec9c e93e
00000360: 8397 33be 6457 633e 1c46 573f d33f 47bd
00000370: f3be dcbd 6c1f 0abf 23ed d4be 8cda a13d
00000380: 2b51 a73e 15c9 0bbf 0326 c93e 000c 583e
00000390: 6665 08bf 9a67 483f 5363 00bf 7f26 98bc
000003a0: f297 79bb ff0a 37be edae 4f3d ec40 fb3d
000003b0: ce35 18be b522 a6bf c3c1 f13d b9e3 bdbe
000003c0: 0b39 963f 44ae 7c3e 7a51 70be 7b76 75bf
000003d0: d5d3 ee3d 1e9a 123f c373 19bf 7f3d 3abf
000003e0: 60a7 063f c47b 27bf 1484 2dbf cb7c 593e
000003f0: de06 febd a801 f03e 0fe6 503e 2e64 163f
