app/src/main/assets/espnet-leaf.tflite (tflite, 390068 bytes, 93 tensors)

arith.constant f4 [128]
-0.00801632 0.020582646 0.021096244 0.063582234 -0.067210294 0.12229565 0.019398473 -0.026884908
-0.053676613 -0.1385651 0.048866306 0.04106344 0.03565918 0.03445192 -0.12558296 0.07543493
-0.008877423 0.034642756 -0.05556658 -0.02479485 0.04512326 0.08279905 -0.052153222 0.04361269
-0.018394195 0.025103504 0.022922069 0.11238663 0.08086717 0.022888772 -0.029854486 -0.051053558
-0.039287306 -0.006760365 -0.08622717 0.034507133 -0.08971116 0.10347557 -0.04903613 -0.10461495
0.006560089 -0.02385038 0.10616167 0.02329899 0.012298884 -0.014555104 0.0059907166 -0.0048854575
-0.028612878 -0.0018720962 0.07931651 0.012350215 -0.07002062 0.023804022 0.037683606 -0.057705514
0.016306767 -0.11697486 -0.03140867 -0.011800094 0.07410556 -0.09282108 -0.027145684 0.022343542
0.006301757 -0.09451948 -0.013705229 0.08908428 0.01210513 0.12080812 0.047081098 -0.042784773
-0.023659956 -0.013466276 0.032179233 0.06864214 0.02329857 -0.041237105 0.021164723 -0.034587353
-0.028843272 -0.09235425 0.04964393 0.03857212 -0.059955414 -0.06267391 0.0414983 0.011133247
0.13632882 -0.08950797 0.03708918 0.12913549 0.00855487 -0.049255207 0.06120124 0.035686847
-0.12565339 -0.019526333 0.025157288 -0.0007953029 -0.0028679855 -0.010454187 0.0042935964 0.023695696
-0.05547494 0.085974574 -0.10607852 0.014733653 0.059773523 0.02098748 0.0739752 -0.13061878
0.15831096 -0.056313775 -0.019775696 -0.04013343 0.08736221 -0.0030892538 -0.027521763 -0.005410745
0.071631454 -0.058451734 -0.059460185 -0.12787268 -0.002131598 -0.008390795 -0.017530888 -0.05483643
00000000: e256 03bc f09c a83c 08d2 ac3c 6737 823d
00000010: 8da5 89bd 2476 fa3d 8ce9 9e3c bd3d dcbc
00000020: 02dc 5bbd 02e4 0dbe 0928 483d 2332 283d
00000030: 5c0f 123d 751d 0d3d d298 00be a17d 9a3d
00000040: 9c72 11bc 90e5 0d3d c899 63bd 921e cbbc
00000050: 2bd3 383d 8c92 a93d 9e9e 55bd 38a3 323d
00000060: 6caf 96bc dda5 cd3c 10c7 bb3c f62a e63d
00000070: b09d a53d 3c81 bb3c 6591 f4bc 891d 51bd
00000080: baeb 20bd 0d86 ddbb df97 b0bd 5a57 0d3d
00000090: 7cba b7bd 00eb d33d 1cda 48bd 5d40 d6bd
000000a0: 04f6 d63b df61 c3bc 4a6b d93d 86dd be3c
000000b0: 4281 493c 8878 6ebc c64d c43b 3016 a0bb
000000c0: 8e65 eabc 2061 f5ba b270 a23d 8e58 4a3c
000000d0: f966 8fbd a700 c33c 205a 1a3d 9e5c 6cbd
000000e0: c595 853c 8490 efbd 61a6 00bd 2e55 41bc
000000f0: a8c4 973d fa18 bebd a060 debc ce09 b73c
00000100: f87e ce3b 6e93 c1bd e68b 60bc d271 b63d
00000110: 9854 463c 3f6a f73d 1cd8 403d 163f 2fbd
00000120: 86d2 c1bc a8a1 5cbc 5fce 033d 4094 8c3d
00000130: a5dc be3c 3de8 28bd a461 ad3c 78ab 0dbd
00000140: ba48 ecbc 3a24 bdbd 6f57 4b3d cdfd 1d3d
00000150: cf93 75bd 2e5b 80bd 1ffa 293d 3968 363c
00000160: c899 0b3e f44f b7bd d3ea 173d 183c 043e
00000170: ba29 0c3c d4bf 49bd 27ae 7a3d 5f2c 123d
00000180: 48ab 00be b0f5 9fbc a816 ce3c e07b 50ba
00000190: d0f4 3bbb 0a48 2bbc 4cb1 8c3b 7a1d c23c
000001a0: b139 63bd 7013 b03d b23f d9bd 6b65 713c
000001b0: 15d5 743d f0ed ab3c 4f80 973d eec0 05be
000001c0: 451c 223e 46a9 66bd a400 a2bc f462 24bd
000001d0: f5ea b23d 1475 4abb 5275 e1bc 9e4c b1bb
000001e0: 83b3 923d 166b 6fbd 868c 73bd 0ef1 02be
000001f0: 48b2 0bbb 8c79 09bc f09c 8fbc 2a9c 60bd

arith.constant1 f4 [128]
-0.09226409 0.015296394 -0.022836456 0.06830438 0.038074665 -0.058888413 -0.008973386 -0.022831721
-0.008855753 -0.051976517 -0.0042189267 0.0011681616 -0.07486 -0.0021979809 0.03861494 -0.02660972
0.0451056 0.08117909 -0.0072265863 -0.021292407 0.01609853 -0.005045414 0.049274575 0.0089096315
-0.02671885 0.003478011 -0.010237663 0.025413647 0.03559645 -0.011282671 0.0027919759 -0.07153646
-0.031138621 0.0058921855 0.015665743 0.065490425 -0.15577865 -0.04053142 -0.027872846 0.0827833
0.027231673 -0.016378175 0.14903644 0.06183122 0.07287711 0.0101219565 -0.027690552 -0.0035938588
-0.033770464 -0.06757413 -0.012662805 0.047042184 -0.14990398 0.0396619 -0.00827487 -0.023935774
-0.05876505 -0.11299212 0.0022267532 -0.12530062 0.056233764 -0.069590025 -0.004541484 -0.0001401864
-0.057254344 0.095443636 -0.08579324 -0.083501056 0.041925773 -0.086728804 0.071958624 0.0030409289
0.045430034 -0.10492851 0.00076333666 0.040552165 -0.06751575 0.09956006 -0.0036512725 -0.060350165
0.02609539 -0.061166987 -0.0017105734 0.0813651 0.008687444 0.09780463 -0.005938109 0.015561368
0.016862571 0.010103457 -0.044520855 0.09105717 0.015091356 0.054062545 0.10706379 0.033345263
-0.13602754 0.110387735 -0.0709898 0.075616404 -0.09919055 0.04973995 0.054388184 -0.05404846
-0.011580881 0.007911198 0.034585476 0.07714305 -0.012491545 0.08481484 0.01398132 -0.0951407
0.05703222 0.012329181 -0.028735615 0.066955365 0.07677373 0.0062918956 0.009942612 -0.047959287
-0.07045956 -0.02389964 -0.080436245 -0.13863447 0.00029952452 0.028781654 -0.12232751 -0.00018275343
00000000: f5f4 bcbd ba9d 7a3c 8513 bbbc 2be3 8b3d
00000010: 2ef4 1b3d fa34 71bd 1c05 13bc 9709 bbbc
00000020: b817 11bc 54e5 54bd ec3e 8abb 001d 993a
00000030: 3350 99bd 000c 10bb b32a 1e3d a1fc d9bc
00000040: a6c0 383d 3941 a63d 00cd ecbb 6a6d aebc
00000050: 10e1 833c 0054 a5bb 23d4 493d b4f9 113c
00000060: 7de1 dabc 58ef 633b dfbb 27bc 4830 d03c
00000070: 95cd 113d f4da 38bc 95f9 363b b581 92bd
00000080: 6c16 ffbc 3c13 c13b 7255 803c d81f 863d
00000090: 7084 1fbe 4604 26bd 9855 e4bc 4a8a a93d
000000a0: f514 df3c 862b 86bc 029d 183e bc42 7d3d
000000b0: 9840 953d 90d6 253c 4cd7 e2bc f286 6bbb
000000c0: e652 0abd 4e64 8abd a777 4fbc 4eaf 403d
000000d0: 6e80 19be 8474 223d 5293 07bc f514 c4bc
000000e0: 9fb3 70bd 6a68 e7bd b8ee 113b ce4e 00be
000000f0: 6055 663d 3785 8ebd bbd0 94bb 00ff 12b9
00000100: 8883 6abd f477 c33d 5eb4 afbd 9a02 abbd
00000110: 5cba 2b3d df9e b1bd 0b5f 933d 524a 473b
00000120: d814 3a3d c2e4 d6bd a81a 483a 071a 263d
00000130: b345 8abd 25e6 cb3d 304a 6fbb bc31 77bd
00000140: 00c6 d53c 3c8a 7abd 5235 e0ba bfa2 a63d
00000150: c855 0e3c cb4d c83d 7894 c2bb 1cf5 7e3c
00000160: 6023 8a3c f888 253c 805b 36bd 2e7c ba3d
00000170: bc41 773c b070 5d3d 4344 db3d 0b95 083d
00000180: ce4a 0bbe f712 e23d 1a63 91bd c6dc 9a3d
00000190: 6a24 cbbd 1ebc 4b3d 25c6 5e3d eb61 5dbd
000001a0: bcbd 3dbc f89d 013c 80a9 0d3d 2dfd 9d3d
000001b0: 56a9 4cbc 67b3 ad3d e811 653c 21d9 c2bd
000001c0: 9e9a 693d 5500 4a3c f466 ebbc e51f 893d
000001d0: 8c3b 9d3d 3f2c ce3b 56e6 223c f570 44bd
000001e0: 1a4d 90bd 2ec9 c3bc c2bb a4bd 32f6 0dbe
000001f0: 8009 9d39 81c7 eb3c d886 fabd 80a1 3fb9

arith.constant2 f4 [128]
0.05608902 -0.05134943 0.041280802 0.03983789 -0.14251818 0.08159617 -0.057235725 0.045805536
-0.032089677 -0.14849146 0.1927312 -0.0133726 0.0036970004 0.22061688 0.004589444 0.15450606
0.047490586 0.13425939 0.057216063 0.029378675 0.08579292 0.14973393 -0.08829956 -0.0061496645
0.095521286 0.045532532 -0.07351932 -0.013296197 0.09715553 -0.2066824 0.06681563 -0.07839554
-0.055267707 0.08675599 -0.023660053 -0.08362353 -0.07848145 -0.11540148 -0.0338995 -0.010767646
-0.11430967 -0.08691496 0.041932784 -0.04351964 -0.12135112 0.035915352 0.038396385 -0.03580097
-0.123390704 0.11606235 -0.058144942 -0.061388593 -0.07906896 0.014021365 -0.037795007 -0.040763013
-0.0046622655 -0.052156635 0.010445013 0.03704214 0.056576923 -0.04341925 0.019726554 -0.11270262
0.025112081 0.037964422 -0.16008855 -0.08745339 -0.011917958 0.05666104 0.06128433 0.05407887
-0.076806545 -0.07538558 0.07968755 -0.08641259 0.04045799 0.13142264 -0.009625476 0.0038140118
-0.007120273 0.18964976 -0.052844606 -0.04365392 0.15842198 -0.01088871 -0.03300332 -0.20899788
-0.074021034 -0.023109538 -0.1947975 -0.074619904 -0.014955537 0.05237428 0.12983802 -0.022023764
-0.16139531 0.089730226 -0.089568496 0.068568714 -0.024209604 0.07574943 -0.028901886 -0.022934306
0.033917308 -0.047132783 -0.03369409 0.09695423 0.092017025 -0.071660526 0.1006493 -0.13040116
0.1375428 0.028095938 -0.013116143 0.049986374 -0.09199496 0.031050663 -0.020208454 -0.036267616
0.044397876 0.017951291 -0.110954456 -0.15582502 0.14419971 0.091897525 -0.12811714 -0.14596379
00000000: 9abd 653d c853 52bd 0f16 293d 0e2d 233d
00000010: 49f0 11be e51b a73d 0270 6abd 969e 3b3d
00000020: 7770 03bd 250e 18be 545b 453e c018 5bbc
00000030: 6049 723b 64e9 613e 0c63 963b d636 1e3e
00000040: 7d85 423d 4b7b 093e 645b 6a3d 8cab f03c
00000050: 33b4 af3d da53 193e 66d6 b4bd 2083 c9bb
00000060: aaa0 c33d 5280 3a3d 4c91 96bd 4bd8 59bc
00000070: 7af9 c63d 8da4 53be a2d6 883d d78d a0bd
00000080: 6460 62bd 20ad b13d bad2 c1bc d042 abbd
00000090: e2ba a0bd 9c57 ecbd 34da 0abd c86a 30bc
000000a0: 301b eabd 7800 b2bd b6c1 2b3d a641 32bd
000000b0: f086 f8bd fa1b 133d 8745 1d3d 0aa4 12bd
000000c0: 44b4 fcbd 19b2 ed3d 6429 6ebd 9b72 7bbd
000000d0: e8ee a1bd deb9 653c f0ce 1abd 1ef7 26bd
000000e0: ebc5 98bb 32a2 55bd 8f21 2b3c 80b9 173d
000000f0: 34bd 673d 62d8 31bd 9599 a13c a2d0 e6bd
00000100: dab7 cd3c 9580 1b3d 41ee 23be c31a b3bd
00000110: 8a43 43bc 6815 683d 4705 7b3d ce81 5d3d
00000120: c04c 9dbd c163 9abd 3a33 a33d 16f9 b0bd
00000130: 47b7 253d a893 063e 2cb4 1dbc 80f4 793b
00000140: 2e51 e9bb 8c33 423e 9673 58bd 74ce 32bd
00000150: 5f39 223e 8f66 32bc 7d2e 07bd 8a03 56be
00000160: 5798 97bd 3750 bdbc ff78 47be 52d2 98bd
00000170: 1208 75bc 6a86 563d 42f4 043e 2e6b b4bc
00000180: d044 25be 7bc4 b73d b06f b7bd c16d 8c3d
00000190: 3853 c6bc 8422 9b3d a6c3 ecbc bae0 bbbc
000001a0: e0ec 0a3d 4e0e 41bd d002 0abd f08f c63d
000001b0: 6c73 bc3d c1c2 92bd 3821 ce3d e287 05be
000001c0: 05d8 0c3e 7429 e63c 17e5 56bc 83be 4c3d
000001d0: db67 bcbd f65d fe3c 338c a5bc 5a8d 14bd
000001e0: 8cda 353d 960e 933c 173c e3bd 9890 1fbe
000001f0: 17a9 133e c534 bc3d 2431 03be 8877 15be

arith.constant3 f4 [128]
-0.064543895 0.022998057 0.095953 0.003497934 -0.12556 0.00023143739 -0.031873956 0.08153815
-0.04550988 0.036931567 0.017090725 -0.04613012 0.090035275 -0.051238313 -0.07808878 0.021137636
0.01727855 0.13164695 -0.10113366 0.11192392 0.049911126 -0.06918125 -0.01838163 0.073731706
0.04814402 0.058163486 -0.06346064 -0.06616036 -0.10882399 -0.109034225 0.012552731 -0.045801893
0.05749187 -0.10719381 0.04408715 0.03647802 0.13119622 0.03880839 -0.10410465 -0.017353762
0.056222655 0.01337203 0.10103845 0.051441237 0.043235604 0.106909506 -0.036855347 -0.05444841
-0.091903605 -0.02868382 0.076007485 -0.05395734 -0.08850166 -0.0011498369 0.058533493 0.014867949
-0.11693144 -0.040921483 0.013992181 -0.12779753 0.042942498 0.00622366 0.008621828 -0.117798075
0.039016783 -0.06809798 0.064515755 -0.049860008 0.06632642 -0.05565403 0.13713321 0.15126704
0.058120653 0.007902514 0.01078025 -0.014411163 -0.018267136 0.059539586 0.093407325 -0.032921664
-0.02280741 -0.050066885 0.002660567 0.069025025 -0.038827263 -0.0770991 -0.032887965 -0.10779278
-0.078687936 -0.08593507 -0.09243098 -0.01985094 0.14757279 0.00029025413 0.18068251 0.105706066
0.0801402 0.127773 -0.058102366 -0.06157851 -0.1011855 -0.047817253 0.04773197 0.1565389
-0.07968412 0.035174895 -0.08768196 -0.08367339 0.11149101 0.06923533 0.10177356 0.06044604
0.164082 -0.032093525 -0.08580609 0.098234914 0.09982381 -0.040291987 -0.17703754 -0.09440826
-0.0419605 0.031715903 -0.024115235 -0.027617281 0.041625164 0.06484024 0.04615245 -0.09891439
00000000: 972f 84bd 6c66 bc3c 0283 c43d 983d 653b
00000010: cd92 00be 00ae 7239 448e 02bd 79fd a63d
00000020: 9168 3abd 8e45 173d d901 8c3c f0f2 3cbd
00000030: 6a64 b83d 44df 51bd 03ed 9fbd d628 ad3c
00000040: bf8b 8d3c 75ce 063e 2a1f cfbd 5e38 e53d
00000050: 9c6f 4c3d e6ae 8dbd 1295 96bc a600 973d
00000060: aa32 453d d63c 6e3d a7f7 81bd 157f 87bd
00000070: 1ddf debd 564d dfbd f8a9 4d3c c49a 3bbd
00000080: 987c 6b3d 6e88 dbbd ba94 343d fa69 153d
00000090: 4d58 063e 8cf5 1e3d d234 d5bd 7a29 8ebc
000000a0: ba49 663d 5c16 5b3c 3fed ce3d 0cb4 523d
000000b0: d117 313d 5ff3 da3d a2f5 16bd 4c05 5fbd
000000c0: f537 bcbd 55fa eabc d0a9 9b3d 5f02 5dbd
000000d0: 5c40 b5bd 20b6 96ba d1c0 6f3d b398 733c
000000e0: c079 efbd 499d 27bd 763f 653c 5bdd 02be
000000f0: 79e4 2f3d d8ef cb3b 9142 0d3c 1e40 f1bd
00000100: 10d0 1f3d f476 8bbd d620 843d 023a 4cbd
00000110: 25d6 873d 7bf5 63bd a66c 0c3e bfe5 1a3e
00000120: ec0f 6e3d 8c79 013c a59f 303c cc1c 6cbc
00000130: f6a4 95bc c8df 733d 574c bf3d ded8 06bd
00000140: 9bd6 babc ef12 4dbd e85c 2e3b fe5c 8d3d
00000150: 5609 1fbd 22e6 9dbd 88b5 06bd 76c2 dcbd
00000160: 2427 a1bd bafe afbd 744c bdbd 709e a2bc
00000170: 521d 173e 402d 9839 d604 393e 6c7c d83d
00000180: 8c20 a43d edd6 023e bffc 6dbd bf39 7cbd
00000190: 583a cfbd 06dc 43bd 9982 433d bc4b 203e
000001a0: 6e31 a3bd 8d13 103d 9992 b3bd f45c abbd
000001b0: 6655 e43d 41cb 8d3d a86e d03d 4496 773d
000001c0: 1d05 283e 8074 03bd 1abb afbd 632f c93d
000001d0: 6d70 cc3d 3609 25bd 5449 35be 1e59 c1bd
000001e0: c6de 2bbd 89e8 013d 508d c5bc a33d e2bc
000001f0: 267f 2a3d f6ca 843d 5a0a 3d3d a193 cabd

arith.constant4 f4 [128]
0.086863324 -0.065846235 0.04202941 -0.05622042 0.054109946 -0.041518487 -0.0740882 -0.04955551
-0.040960543 -0.0047161244 0.0796399 -0.10721989 -0.0220279 -0.115359485 0.015170183 0.0063189417
0.000972081 0.16974002 -0.012094108 0.0014636572 0.006243013 -0.053746745 -0.08485223 0.024587605
0.07825305 0.13125543 -0.14175957 0.012560742 -0.03973548 -0.11605652 0.084551886 -0.11475271
0.009463565 -0.12561564 0.029132476 -0.054976657 -0.028547792 0.12797682 0.06966196 -0.0033533135
0.09337318 -0.011964377 0.09104704 0.124502406 -0.032490145 0.014693059 -0.09168886 0.008481965
-0.12519751 -0.13576251 0.033200324 0.008949405 -0.048085205 0.039591566 -0.010862963 -0.009521114
-0.0524937 -0.11714568 -0.02680708 -0.025666796 0.09808907 -0.078252144 0.017944682 -0.0975747
-0.043508813 -0.017305719 0.08820188 0.09780748 0.08535165 -0.19839643 0.14669758 -0.08853638
0.07007086 -0.027105536 0.06820003 -0.116017096 -0.06636157 0.1650654 0.00040446734 0.07761421
-0.20342644 0.0076859845 -0.070729464 0.13978079 -0.05541613 0.12062744 0.16031589 -0.05162687
-0.07002354 0.09252077 -0.054267608 -0.05931777 0.12898903 -0.017607307 0.07141568 -0.0874114
-0.082973294 0.08572622 0.0341771 -0.08517254 0.015916772 0.1321491 0.032853927 0.07660592
-0.0057669953 0.07482827 0.029830433 0.011725285 0.055535793 0.0853899 0.07641171 -0.06994482
-0.120808385 -0.0005942937 -0.12595704 0.015661823 -0.06958569 -0.030441228 -0.11710889 -0.07363972
0.041122504 -0.17533934 -0.0895291 -0.24170062 0.09833838 -0.09578594 -0.18425268 0.005582532
00000000: 66e5 b13d 64da 86bd 0827 2c3d 6247 66bd
00000010: 64a2 5d3d 4a0f 2abd 8ebb 97bd b8fa 4abd
00000020: 3ec6 27bd b889 9abb 3e1a a33d 1a96 dbbd
00000030: db73 b4bc 9841 ecbd 5c8c 783c 200f cf3b
00000040: 40d3 7e3a 54d0 2d3e 5e26 46bc 30d8 bf3a
00000050: 3092 cc3b 8c25 5cbd 02c7 adbd f26b c93c
00000060: 2343 a03d d367 063e 6c29 11be 92cb 4d3c
00000070: acc1 22bd 0aaf edbd 8a29 ad3d 7803 ebbd
00000080: 120d 1b3c 63a1 00be 3ba7 ee3c 342f 61bd
00000090: 0fdd e9bc 5b0c 033e eeaa 8e3d 44c3 5bbb
000000a0: 703a bf3d 3c06 44bc df76 ba3d 1efb fe3d
000000b0: 6314 05bd 28bb 703c 5ec7 bbbd f1f7 0a3c
000000c0: c733 00be 5405 0bbe 10fd 073d 86a0 123c
000000d0: fef4 44bd c42a 223d 92fa 31bc 72fe 1bbc
000000e0: a203 57bd 13ea efbd 859a dbbc 2c43 d2bc
000000f0: ece2 c83d a942 a0bd ba00 933c 3fd5 c7bd
00000100: 4c36 32bd b9c4 8dbc 30a3 b43d 4a4f c83d
00000110: d9cc ae3d 6f28 4bbe e437 163e 9052 b5bd
00000120: 5081 8f3d 6e0c debc 75ac 8b3d 5f9a edbd
00000130: 93e8 87bd e706 293e b00e d439 33f4 9e3d
00000140: 054f 50be b6da fb3b 9cda 90bd b222 0f3e
00000150: 06fc 62bd 850b f73d d929 243e b276 53bd
00000160: 8068 8fbd 887b bd3d b647 5ebd 31f7 72bd
00000170: b315 043e 333d 90bc 6242 923d c004 b3bd
00000180: e7ed a9bd 3a91 af3d 49fd 0b3d f16e aebd
00000190: e463 823c 1852 073e d791 063d 91e3 9c3d
000001a0: 10f9 bcbb 903f 993d f45e f43c 691b 403c
000001b0: 8079 633d e6e0 ae3d be7d 9c3d 3b3f 8fbd
000001c0: 636a f7bd 60ca 1bba e2fa 00be 394d 803c
000001d0: f182 8ebd e25f f9bc c9d6 efbd 6cd0 96bd
000001e0: 1270 283d 288c 33be 085b b7bd 5e80 77be
000001f0: a265 c93d 6b2b c4bd bcac 3cbe aced b63b

arith.constant5 f4 [128]
-0.05704765 -0.12948634 0.15856782 -0.056751706 0.030089732 0.0905322 -0.11825233 -0.13946779
0.003971303 -0.060537435 0.07307021 -0.028024487 0.039320026 0.13075209 0.082264945 -0.045679927
-0.0053852377 0.059049327 0.06598621 0.014476184 0.07301308 0.0065807076 -0.027208168 -0.024442006
-0.018412855 0.13614686 -0.029188773 -0.19879715 0.020065693 -0.14431195 0.056794778 -0.16863456
-0.008117011 0.034258 -0.008531211 -0.08676593 -0.030690975 -0.00044295937 0.07206659 -0.008358955
-0.035780463 -0.07336608 0.16818908 0.14043725 -0.009581511 -0.0063931793 0.0451253 -0.11986976
0.12074619 -0.024503525 0.038534485 -0.031360816 -0.08915131 -0.13566263 -0.09726116 -0.107520014
-0.036054097 0.08830033 0.076771334 -0.0056212554 0.19027258 -0.10692052 -0.009114798 -0.10010759
-0.062353343 -0.021474548 -0.09690356 0.019427659 -0.089904994 -0.0960592 0.011216683 0.026238868
-0.05637769 -0.15610115 0.029672492 0.06839439 0.0029786243 0.08351258 -0.007969665 0.01998912
0.012505045 0.012435551 -0.04264052 -0.08636885 0.10204716 0.041402683 0.067749724 -0.006484691
-0.06934083 -0.022458952 0.009628568 -0.082855545 0.052429374 -0.14135975 -0.019160103 0.01781979
0.067919225 -0.12588887 0.053548448 -0.030223286 -0.028426101 0.09371166 0.13731954 0.08790325
-0.15933461 -0.06735017 -0.07298348 -0.072186925 0.14729425 -0.10092228 -0.17764422 0.019228538
0.0054174317 -0.13596667 0.067194134 0.05622221 0.00708616 -0.1474309 -0.110280655 -0.056574784
-0.15242565 -0.05624704 0.10008098 -0.049692214 0.13260548 0.018783905 -0.096020624 -0.051095568
00000000: ccaa 69bd 1198 04be 9a5f 223e 7a74 68bd
00000010: be7e f63c f268 b93d 472e f2bd a5d0 0ebe
00000020: b421 823b 1af6 77bd d6a5 953d 9c93 e5bc
00000030: 090e 213d e0e3 053e 867a a83d e01a 3bbd
00000040: a676 b0bb b5dd 713d c723 873d 842d 6d3c
00000050: e287 953d faa2 d73b aae3 debc 9a3a c8bc
00000060: 8ed6 96bc 156a 0b3e 4b1d efbc 7b91 4bbe
00000070: cf60 a43c 83c6 13be a4a1 683d 8aae 2cbe
00000080: 36fd 04bc 1e52 0c3d 7ec6 0bbc 56b2 b1bd
00000090: a46b fbbc 003d e8b9 a697 933d 00f4 08bc
000000a0: 898e 12bd f540 96bd c239 2c3e c8ce 0f3e
000000b0: c5fb 1cbc e07d d1bb 4ed5 383d 477e f5bd
000000c0: c749 f73d 9ebb c8bc 56d6 1d3d 3374 00bd
000000d0: f694 b6bd 25eb 0abe dc30 c7bd 7433 dcbd
000000e0: 76ad 13bd ced6 b43d 4a3a 9d3d 8232 b8bb
000000f0: d1d6 423e 25f9 dabd 3c56 15bc 3505 cdbd
00000100: 3866 7fbd 64eb afbc 6075 c6bd c126 9f3c
00000110: 1c20 b8bd b0ba c4bd 2ec6 373c e5f2 d63c
00000120: 4bec 66bd fbd8 1fbe ba13 f33c 5c12 8c3d
00000130: 0635 433b a508 ab3d 3393 02bc 39c0 a33c
00000140: f6e1 4c3c 7bbe 4b3c d3a7 2ebd 27e2 b0bd
00000150: 1afe d03d dc95 293d 5ec0 8a3d 887d d4bb
00000160: 9102 8ebd d6fb b7bc 24c1 1d3c 2bb0 a9bd
00000170: 2fc0 563d 9cc0 10be a6f5 9cbc cffa 913c
00000180: 3c19 8b3d 03e9 00be 9e55 5b3d d396 f7bc
00000190: dbdd e8bc e6eb bf3d 7e9d 0c3e 9e06 b43d
000001a0: 9d28 23be e3ee 89bd 5d78 95bd bdd6 93bd
000001b0: 4ed4 163e 57b0 cebd 5ee8 35be 2b85 9d3c
000001c0: b684 b13b d93a 0bbe 149d 893d 4349 663d
000001d0: 0533 e83b 20f8 16be d3da e1bd f6ba 67bd
000001e0: 7815 1cbe 4c63 66bd 42f7 cc3d 108a 4bbd
000001f0: bbc9 073e b4e0 993c 76a6 c4bd 9649 51bd

arith.constant6 f4 [128]
-0.035844713 -0.072625875 0.11925405 0.16815725 0.17362443 -0.10326914 -0.11472613 0.05445681
0.13062829 -0.15629701 0.040142722 0.017474933 -0.042123914 -0.07237985 0.07234885 -0.17110935
-0.02548138 -0.0044386154 -0.025974173 0.088235915 0.012080774 -0.06298024 0.057966474 0.008877542
-0.02822923 0.07109765 0.041476265 -0.15985164 0.0060561164 -0.04380436 0.073085666 0.034983225
-0.026181716 0.10537472 -0.049102493 0.09860106 -0.12597372 0.12065252 -0.0049729496 -0.006254255
-0.021997733 0.01249319 -0.027980657 0.06558148 0.023045965 -0.032032907 -0.24261421 -0.09584173
-0.15712194 -0.09477444 0.08839966 -0.06114769 -0.02887439 0.051671162 -0.07624983 0.06339333
0.1227894 0.12951607 -0.10655011 0.0026780795 0.20617959 -0.09776895 0.0720518 0.033701822
-0.10774498 -0.059753865 -0.058743525 0.023561902 -0.007863736 0.16044557 0.05590012 0.1970794
-0.05891357 -0.20463875 -0.07895015 -0.04705313 -0.08343165 -0.039191306 -0.099086225 -0.07100969
-0.00657887 -0.10844515 -0.1325546 -0.10723543 0.026005967 -0.04420579 -0.007656293 -0.17508982
0.18453676 0.08475466 -0.18250366 -0.08463197 0.15482616 -0.17777614 0.17948571 0.013954651
-0.07436236 0.080091365 0.11339194 0.038889926 -0.19100143 0.13864718 0.06626264 -0.11309919
-0.15469947 0.13298029 0.029005928 -0.12378907 0.07568954 0.099194646 -0.1443039 -0.21599627
-0.09660433 -0.052003346 0.1057576 0.05838035 -0.068349995 0.09750505 -0.020045899 -0.17179362
0.09611302 -0.029580845 0.11059244 0.007753929 0.15088156 0.15894496 -0.10544601 0.091912255
00000000: e8d1 12bd e0bc 94bd 783b f43d 6a31 2c3e
00000010: 9aca 313e c57e d3bd 89f5 eabd 1b0e 5f3d
00000020: 6cc3 053e 530c 20be b26c 243d 9727 8f3c
00000030: 208a 2cbd e33b 94bd a22b 943d 4a37 2fbe
00000040: 54be d0bc ce71 91bb cac7 d4bc 08b5 b43d
00000050: 70ee 453c c9fb 80bd 416e 6d3d 1c73 113c
00000060: fc40 e7bc a59b 913d 04e3 293d 26b0 23be
00000070: 6372 c63b 336c 33bd f0ad 953d 924a 0f3d
00000080: 0a7b d6bc b4ce d73d b21f 49bd 5aef c93d
00000090: 41ff 00be ab18 f73d 20f4 a2bb 7ef0 ccbb
000000a0: 9734 b4bc 3db0 4c3c b137 e5bc 954f 863d
000000b0: e4ca bc3c f034 03bd dc6f 78be ab48 c4bd
000000c0: 93e4 20be 1a19 c2bd e20a b53d 0076 7abd
000000d0: fc89 ecbc 24a5 533d df28 9cbd 5dd4 813d
000000e0: 0279 fb3d dc9f 043e f236 dabd b882 2f3b
000000f0: be20 533e 163b c8bd e58f 933d ec0a 0a3d
00000100: 66a9 dcbd 78c0 74bd 0d9d 70bd e404 c13c
00000110: e6d6 00bc d84b 243e 86f7 643d 2fcf 493e
00000120: 5b4f 71bd d28c 51be 9eb0 a1bd c8ba 40bd
00000130: 37de aabd 1087 20bd b8ed cabd 876d 91bd
00000140: 9093 d7bb 7e18 debd 65bc 07be 409e dbbd
00000150: 770a d53c 2111 35bd a4e1 fabb bf4a 33be
00000160: 34f7 3c3e da93 ad3d 3de2 3abe 8753 adbd
00000170: c08a 1e3e f30a 36be 1acb 373e 0ca2 643c
00000180: 4b4b 98bd f106 a43d 093a e83d 0b4b 1f3d
00000190: e195 43be 87f9 0d3e b5b4 873d 8ca0 e7bd
000001a0: 8a69 1ebe fc2b 083e d79d ed3c 2085 fdbd
000001b0: 1e03 9b3d 9026 cb3d 67c4 13be 202e 5dbe
000001c0: 7ed8 c5bd 7601 55bd 7197 d83d 3c20 6f3d
000001d0: 15fb 8bbd bab0 c73d 4c37 a4bc abea 2fbe
000001e0: e7d6 c43d 8753 f2bc 4a7e e23d ac14 fe3b
000001f0: b280 1a3e 78c2 223e 14f4 d7bd 7e3c bc3d

arith.constant7 f4 [128]
0.006947661 -0.0628561 0.22222596 0.11693245 0.06309747 0.0037696566 -0.033987872 0.12913233
0.17227834 -0.09068525 -0.08237646 0.15911546 -0.13799757 0.1190953 0.18001007 -0.06416918
0.13313493 -0.068036206 0.122042194 0.04470982 0.08009528 0.07743285 -0.11010926 -0.017951325
0.023720477 -0.08088419 -0.24022946 -0.21511345 -0.30597645 -0.089858666 -0.07705177 -0.05255347
-0.11065441 -0.056680262 0.24211197 0.036044996 -0.103002176 0.08366437 0.16141365 -0.1614175
0.045860033 0.07819592 -0.012402728 0.12661144 0.09647906 -0.055751737 -0.048856933 0.1592487
-0.054975238 0.018625952 -0.17340855 -0.044690564 -0.14331497 0.112641655 -0.00025635958 0.22810064
0.07346648 0.08632888 0.0821884 0.09047773 0.0021224525 0.23807369 -0.022480773 0.11392378
0.11712052 0.04757573 0.044338733 0.024294231 -0.12208851 0.0062243496 0.14878741 -0.089950085
-0.24295074 -0.20817843 -0.067521125 0.20088704 -0.05201539 -0.22244838 -0.07852615 0.072165325
0.08471997 -0.23918901 0.14374708 -0.04525386 -0.047644768 -0.09443409 0.21424635 -0.030423086
0.13518251 0.09651141 -0.34238502 -0.21275951 0.016482351 0.074150324 0.24286789 0.0028989422
0.28231838 0.08592304 0.12053896 -0.026239535 -0.0017098021 -0.039156154 0.037178338 -0.1467953
-0.043945972 0.073539935 -0.14320573 0.09313876 -0.0133428015 0.065373346 0.24782407 -0.011015184
0.085941695 -0.20419689 0.11749471 0.12928125 -0.059242617 0.052445672 -0.05076886 0.08123864
-0.028675951 0.003074417 -0.16031107 -0.20957507 0.101677656 0.12706855 0.048284683 0.018446224
00000000: 34a9 e33b b3ba 80bd 348f 633e 487a ef3d
00000010: 3f39 813d 580c 773b de36 0bbd 443b 043e
00000020: bc69 303e 30b9 b9bd fdb4 a8bd 2aef 223e
00000030: 3c4f 0dbe 3de8 f33d 8f54 383e 226b 83bd
00000040: 8654 083e 9156 8bbd 42f1 f93d a521 373d
00000050: ff08 a43d 1d95 9e3d f780 e1bd a80e 93bc
00000060: 7251 c23c 9ca6 a5bd b6fe 75be b346 5cbe
00000070: f2a8 9cbe d207 b8bd 52cd 9dbd 4f42 57bd
00000080: c89e e2bd 9029 68bd 33ec 773e eba3 133d
00000090: cef2 d2bd 3a58 ab3d 9f49 253e a14a 25be
000000a0: bbd7 3b3d 2f25 a03d d034 4bbc 6ea6 013e
000000b0: d096 c53d ef5b 64bd 351e 48bd 1712 233e
000000c0: b72d 61bd 7495 983c 0392 31be 740d 37bd
000000d0: 29c1 12be abb0 e63d 0068 86b9 3793 693e
000000e0: 9875 963d 32cd b03d 6452 a83d 634c b93d
000000f0: d818 0b3b 97c9 733e 9929 b8bc df50 e93d
00000100: e2dc ef3d c5de 423d 889c 353d b204 c73c
00000110: 8a09 fabd a1f5 cb3b ba5b 183e c037 b8bd
00000120: 14c8 78be ba2c 55be 8448 8abd 55b5 4d3e
00000130: 170e 55bd 82c9 63be 51d2 a0bd 6acb 933d
00000140: aa81 ad3d f7ed 74be 6f32 133e 1d5c 39bd
00000150: 2927 43bd a966 c1bd 6563 5b3e d639 f9bc
00000160: 496d 0a3e c6a7 c53d 174d afbe a1dd 59be
00000170: ff05 873c 20dc 973d 5cb2 783e 2efc 3d3b
00000180: 098c 903e 6bf8 af3d 21dd f63d 4bf4 d6bc
00000190: 701b e0ba 3462 20bd 5048 183d 8251 16be
000001a0: b100 34bd 1b9c 963d 86a4 12be 89bf be3d
000001b0: c49b 5abc 76e2 853d 98c5 7d3e 0879 34bc
000001c0: 3302 b03d fd18 51be 11a1 f03d 4e62 043e
000001d0: 63a8 72bd 46d1 563d 02f3 4fbd 7260 a63d
000001e0: d4e9 eabc 287c 493b 9628 24be d99a 56be
000001f0: 603c d03d 421e 023e 29c6 453d 891c 973c

arith.constant8 f4 [64]
0.0636331 -0.13238062 -0.07556699 -0.061708175 0.054572836 0.16552481 -0.07185122 0.025279956
-0.19415633 -0.014252724 0.049865127 0.15785147 0.14887054 0.09032818 -0.062992804 0.04718051
-0.15264182 -0.065215304 0.023249296 0.0684398 0.18218668 -0.10522992 0.16318113 0.097189404
0.19944909 -0.049155843 -0.027886074 -0.00673887 -0.09168501 0.09832429 0.053855516 0.13470995
0.024350721 0.10320457 -0.2201637 0.042562466 -0.004926948 0.04777138 0.00027854973 -0.0019533462
-0.09790303 0.002733985 -0.16478172 -0.058252748 -0.05302062 0.13542585 0.019788384 -0.053031087
-0.10228606 0.009640478 0.13880672 0.036845393 -0.049313627 0.15996976 0.13425805 0.15664735
-0.059468467 -0.039392903 -0.037913177 0.1250634 0.1461074 0.1295648 0.077333786 -0.013319729
00000000: 1252 823d c98e 07be dec2 9abd b6c1 7cbd
00000010: c487 5f3d 567f 293e bc26 93bd e917 cf3c
00000020: ebd0 46be 4284 69bc 603f 4c3d d1a3 213e
00000030: 8571 183e fbfd b83d 5f02 81bd 5a40 413d
00000040: 234e 1cbe 9a8f 85bd 4f75 be3c 2a2a 8c3d
00000050: 258f 3a3e c982 d7bd f418 273e 3d0b c73d
00000060: 623c 4c3e a357 49bd 5671 e4bc bdd1 dcbb
00000070: 5ac5 bbbd 3f5e c93d 9a97 5c3d 68f1 093e
00000080: 2a7b c73c eb5c d33d 9872 61be fb55 2e3d
00000090: 3c72 a1bb ecab 433d 500a 9239 b603 00bb
000000a0: 6281 c8bd a82c 333b 8abc 28be 6f9a 6ebd
000000b0: 262c 59bd 13ad 0a3e 401b a23c 2037 59bd
000000c0: 5b7b d1bd 18f3 1d3c 5923 0e3e 32eb 163d
000000d0: 16fd 49bd 1dcf 233e f17a 093e 2a68 203e
000000e0: 3595 73bd 745a 21bd d94a 1bbd 9f10 003e
000000f0: 2e9d 153e a3ac 043e 2d61 9e3d fe3a 5abc

arith.constant9 f4 [32]
-0.6364211 0.089151755 -0.37136996 0.3766636 -0.5676844 -0.6009814 0.21261919 0.15084215
0.12039852 0.034790333 0.1336466 -0.39636946 0.08641707 -0.120330215 -0.03659332 0.050913762
-0.1326502 0.23235442 -0.41187826 -0.20163998 0.19635205 -0.03703174 -0.15322548 0.35775262
-0.4360727 0.26780963 0.05624508 0.2068787 0.22694352 0.049763054 -0.24085705 -0.3610506
00000000: 7eec 22bf 3295 b63d 3424 bebe 0dda c03e
00000010: c453 11bf ebd9 19bf d8b8 593e 5d76 1a3e
00000020: 8093 f63d 4f80 0e3d a8da 083e f0f0 cabe
00000030: 6ffb b03d b06f f6bd e1e2 15bd f38a 503d
00000040: 74d5 07be 51ee 6d3e b5e1 d2be b67a 4ebe
00000050: 8310 493e 98ae 17bd 24e7 1cbe 5a2b b73e
00000060: ec44 dfbe 581e 893e 3e61 663d 03d8 533e
00000070: e263 683e 58d4 4b3d 3ba3 76be a0db b8be

arith.constant10 f4 [128, 1, 1, 32]
0.9003037 -0.51118475 -0.2915187 -0.02090712 0.7192076 0.43407094 0.4160996 -0.2274345
-0.638902 0.2962885 -0.40216732 -0.03507906 -0.47912848 -0.2877869 -0.35052335 1.3518769
-0.8238115 0.65199155 -0.26059285 -0.38102204 -0.4245802 0.2202595 -0.08066426 -0.46788946
-0.38350546 0.6586423 -0.02848929 1.3921902 -0.09281281 0.27218634 0.38396636 -0.17901577
-0.22167464 -0.13816817 0.4506767 0.045979526 0.4696322 -0.2580362 0.34873915 -0.20628595
-0.18579246 -0.29951963 0.5234152 -0.5105445 -0.4445081 0.7491208 0.124720305 -0.057953257
0.049010027 -0.36324513 0.17049813 -0.34432375 0.060077403 -0.3814554 -0.010688635 0.09444873
0.0087053375 0.31435555 -0.27747065 -0.1411108 0.44283047 0.10472802 0.56448025 -0.19294114
-0.72195923 0.31081486 1.1324104 -0.257144 -0.13979924 -0.080351956 -0.37136388 0.28308502
0.10047314 -0.34573686 -0.13251828 0.14551924 -0.24507225 -1.1634686 0.75102377 -0.11389226
-0.06332736 0.7526273 0.18315494 0.11208059 -0.03433846 -0.07095662 1.2128776 -0.14330865
-1.1301253 -0.6644832 -0.1920533 1.1974163 -0.32134014 -0.9037711 -0.035066888 0.102371514
0.70891124 0.94508046 0.29084542 -0.83674186 -0.9811645 -0.14638013 0.6981201 0.094160944
0.286491 0.69342923 -0.11345197 -0.4401782 0.6884496 -0.22299314 0.43405727 1.4469143
0.28910628 -0.95938176 0.42223516 -0.15390646 0.2869748 -0.4158209 0.53125805 0.40071315
0.10219511 1.4119397 0.003030152 0.23768291 0.10150277 -0.22050384 -0.9018221 -0.5333464
-0.19572742 -0.17696801 -0.10444065 0.23987724 -0.6135461 0.273743 -0.21489885 -0.52959085
0.2813284 0.1577243 -0.15755437 0.7825288 0.5735253 -0.16123131 -0.0951768 0.292126
-0.62526184 -0.25897047 0.04874225 0.4630279 -0.027192015 -0.46802047 -0.39776057 0.057013627
0.24556914 -0.2987973 -0.26252347 -0.5317118 0.12465002 0.103983134 -0.38624945 -0.06760517
-0.09741994 -0.2821844 -0.084046565 -0.317321 -0.091150664 0.6298735 -0.4716557 0.45121092
-0.24333717 0.7232712 0.16884229 -0.9261617 -0.095666036 0.11416469 0.09603255 -0.27328226
0.35259873 0.4455133 -0.5078628 0.21137251 -0.19684814 -0.5613282 -0.029868348 -0.48493996
0.44166347 -0.090305254 0.22093964 -0.18815063 0.14448741 -0.28878647 -0.024168054 0.3690727
0.015831845 -0.66196316 -0.29970768 -0.85887283 0.27095932 0.16121268 -0.3712266 0.498952
-0.29365015 0.089920074 0.16357565 0.3154976 0.65069103 -0.46843532 -0.10013698 -0.41777325
0.024998795 -0.7050486 0.35203415 0.35676372 -0.69404316 0.023237113 0.3134714 0.4926354
-0.5186992 0.78467494 -0.542506 0.45557383 -0.44165042 -0.31712523 -0.50577635 0.0010763388
0.52638996 0.67822045 -0.26562628 -0.02263164 0.20644645 -0.9496483 0.65308666 -0.026649011
-1.1075075 -0.5737277 -0.9154074 -0.3469581 0.024874052 -0.97555035 0.058808245 -1.0528803
0.24130923 0.034242805 0.49876627 -0.7919558 -0.37866652 0.689551 1.0645981 -1.1386527
-1.153248 0.42903167 -1.2979594 0.09828093 -0.81670475 0.47963336 0.5774046 -1.283967
00000000: 4e7a 663f 01dd 02bf f041 95be 6945 abbc
00000010: fd1d 383f 8c3e de3e 020b d53e 97e4 68be
00000020: 158f 23bf 20b3 973e e0e8 cdbe 0faf 0fbd
00000030: 5450 f5be ce58 93be cc77 b3be 4d0a ad3f
00000040: 4fe5 52bf ebe8 263f 6d6c 85be 5215 c3be
00000050: 9362 d9be b58b 613e 4e33 a5bd 358f efbe
00000060: d45a c4be c89c 283f 5f62 e9bc 4a33 b23f
00000070: a414 bebd 025c 8b3e 3d97 c43e e94f 37be
00000080: adfe 62be f57b 0dbe 19bf e63e 0755 3c3d
00000090: a273 f03e 521d 84be f08d b23e a03c 53be
000000a0: 6140 3ebe a35a 99be 8afe 053f 0bb3 02bf
000000b0: 9196 e3be 61c6 3f3f 5c6d ff3d 6560 6dbd
000000c0: bdbe 483d 44fb b9be 1097 2e3e 344b b0be
000000d0: b913 763d 1f4e c3be 621f 2fbc 566e c13d
000000e0: d5a0 0e3c 36f3 a03e a210 8ebe 597f 10be
000000f0: adba e23e a57b d63d c781 103f 5d92 45be
00000100: 52d2 38bf 2023 9f3e d3f2 903f 61a8 83be
00000110: 8827 0fbe 918f a4bd 6823 bebe 85f0 903e
00000120: ddc4 cd3d 6c04 b1be dfb2 07be ff02 153e
00000130: 38f4 7abe 8aec 94bf 1843 403f 5840 e9bd
00000140: c6b1 81bd 2fac 403f f88c 3b3e 828a e53d
00000150: 7ca6 0cbd b451 91bd 933f 9b3f 81bf 12be
00000160: f2a7 90bf 921b 2abf 9fa9 44be f044 993f
00000170: b286 a4be 8b5d 67bf 4ca2 0fbd 28a8 d13d
00000180: 357b 353f cbf0 713f b1e9 943e b734 56bf
00000190: 992d 7bbf ace4 15be 00b8 323f 74d7 c03d
000001a0: f3ae 923e 9484 313f 8259 e8bd 095f e1be
000001b0: 3c3e 303f 5058 64be c13c de3e 7d34 b93f
000001c0: bd05 943e 0b9a 75bf 352f d83e a899 1dbe
000001d0: 5cee 923e 7ae6 d4be 8700 083f 462a cd3e
000001e0: ab4b d13d 71ba b43f 8495 463b 2663 733e
000001f0: afe0 cf3d c2cb 61be d0dd 66bf 6489 08bf
00000200: c56c 48be 1a37 35be fbe4 d5bd 61a2 753e
00000210: 5b11 1dbf 0b28 8c3e 720e 5cbe 4493 07bf
00000220: 470a 903e 7b82 213e ef55 21be cf53 483f
00000230: 8ed2 123f d219 25be 0eec c2bd 8a91 953e
00000240: 2911 20bf c797 84be f4a5 473d fe11 ed3e
00000250: cac1 debc 61a0 efbe 46a7 cbbe 1f87 693d
00000260: 7a76 7b3e f6fb 98be 7a69 86be 441e 08bf
00000270: 8248 ff3d 1cf5 d43d 7dc2 c5be 9474 8abd
00000280: 1b84 c7bd 797a 90be 9b20 acbd e677 a2be
00000290: 33ad babd 643f 213f db7c f1be 1e05 e73e
000002a0: 612d 79be 4d28 393f fee4 2c3e ef18 6dbf
000002b0: 8eec c3bd 2dcf e93d b7ac c43d a7eb 8bbe
000002c0: d287 b43e 521a e43e 4c03 02bf 0972 583e
000002d0: 8f92 49be 34b3 0fbf 77ae f4bc 0d4a f8be
000002e0: b721 e23e f6f1 b8bd 003e 623e 8faa 40be
000002f0: 82f4 133e d2db 93be 15fc c5bc 19f7 bc3e
00000300: c9b1 813c 6b76 29bf 4973 99be 17df 5bbf
00000310: 2ebb 8a3e f014 253e 6a11 bebe a376 ff3e
00000320: 5059 96be 0428 b83d 6080 273e e788 a13e
00000330: b093 263f c1d6 efbe 9e14 cdbd 60e6 d5be
00000340: 46ca cc3c 117e 34bf d23d b43e bca9 b63e
00000350: d0ac 31bf c25b be3c 537f a03e b53a fc3e
00000360: 79c9 04bf 75e0 483f ace1 0abf f940 e93e
00000370: 0120 e2be 3d5e a2be 8f7a 01bf f013 8d3a
00000380: 7ec1 063f db9f 2d3f 2b00 88be fd65 b9bc
00000390: b366 533e 271c 73bf b030 273f 074f dabc
000003a0: cec2 8dbf d2df 12bf 2458 6abf 7ea4 b1be
000003b0: abc4 cb3c abbd 79bf eae0 703d c8c4 86bf
000003c0: c419 773e 2f42 0c3d 4b5e ff3e 9ebd 4abf
000003d0: 94e0 c1be 6a86 303f c044 883f 5fbf 91bf
000003e0: a19d 93bf 0aaa db3e 8923 a6bf 8347 c93d
000003f0: 9013 51bf 8192 f53e cad0 133f 0859 a4bf

arith.constant11 f4 [128, 1, 1, 32]
-0.14090487 -0.8025991 -0.3867425 0.7288449 0.38895857 0.28372374 -0.11972875 -0.01062063
0.48897582 -0.7417887 0.18286225 0.10913929 1.1419883 -0.8211045 -0.9895668 -0.93125224
0.46697617 1.1467345 0.5567834 0.46175373 -0.24401812 -0.33121485 0.624065 0.051309083
0.35074535 -1.149524 1.0911473 -0.76421684 0.5938497 -0.077136196 -0.023740128 0.3146004
-1.2287779 0.95573723 1.1466866 0.19175479 0.20890327 0.6040653 0.1618469 0.17286788
-1.3384422 0.4963044 0.21579249 0.4855408 -0.061542593 0.4306356 0.17584345 -1.3935441
-0.34938946 0.41018844 0.57049716 -0.32507268 0.39607146 0.18063062 -0.6967765 -0.7751226
0.35493216 0.62203175 0.7171359 -1.7779936 -0.06524592 0.703242 0.2592208 -0.08920291
-1.3059676 -0.6078155 -1.0923749 -0.34062782 2.2244096 -0.5989145 -0.90983963 1.2846755
0.6468193 -1.1989547 0.21003808 -0.6360126 0.70604175 -1.2121097 0.10396586 2.0204365
-1.1784235 -0.43527228 0.16310588 -0.87762946 -0.4620921 0.377669 0.9332884 -0.8899779
-0.29149646 0.38316575 0.19253166 0.7630695 -1.5286908 -0.66489124 0.8828548 0.4672358
0.31827486 0.35598826 0.1558549 -0.00043764676 -0.42959797 0.21105258 0.7292243 -0.0017223605
-0.5021465 0.46669066 -0.0933391 0.33196276 0.111286685 -0.9619087 0.0070777074 -0.17827114
-0.18741643 -0.2860681 0.10223903 0.09381263 -0.2022671 0.22164276 -0.5135039 -0.009752745
-0.3745165 -0.010420568 -0.18586804 0.22985926 0.46544302 0.062073156 0.3546986 -0.13682136
-0.066999204 -2.0774744 0.25994685 0.100360416 0.57499903 -0.5326878 0.31056744 0.17990343
-0.18381207 0.9291115 0.3811639 -0.5244902 0.17160222 -1.1573334 -0.4966439 0.82120895
0.07952577 2.3022606 -1.3830035 -1.3998579 1.8743601 -0.057805434 1.4340814 -0.088520974
-0.22603486 1.9759178 0.4714752 0.47782665 -0.12611628 0.41459247 1.1594617 1.5384352
-0.47285637 -0.050753806 -0.30755886 0.46151644 -0.8568171 0.20167877 0.67913616 -0.9795789
-0.10583478 -1.0205549 -0.5553545 0.085200734 -0.13940689 0.12768017 -1.0940008 0.6791426
-0.48190975 0.26340038 0.8176688 0.13985279 1.0031947 -1.6531496 -0.33152756 0.061042327
-1.0237069 0.2360335 0.47296193 -0.24253875 0.2349463 0.18731652 -1.6021056 0.719365
-0.21352032 -0.30580246 -0.13585721 -0.1204766 0.18285911 -0.03554664 0.17934956 0.4308496
0.5418865 -0.5085521 -0.08477901 -0.23346904 -0.13523158 0.19078179 0.7636004 0.1132375
0.4004415 -0.6791993 0.21621358 -0.4454515 -0.19382855 -0.6214765 0.5816016 0.556371
-0.66950846 -0.73249096 -0.05868184 0.1501761 0.54066575 0.37678906 0.06222003 -0.31770584
-0.6848952 0.7070697 0.6326923 -0.21669318 0.18501881 0.8714346 0.54902375 -0.058874194
0.3207341 0.07742327 -0.28151962 -0.63125885 -0.8301893 0.25587136 -0.9588005 0.20496678
0.2106868 -0.85519093 0.21119283 -0.08098844 -0.8464404 -0.4228741 -0.63268125 -1.4367367
-0.4182083 -0.8161328 -0.91796255 0.4745461 1.2039663 -1.4455793 0.028325588 -0.28280672
00000000: 5e49 10be 2277 4dbf 1d03 c6be 9495 3a3f
00000010: 9425 c73e 3d44 913e 5934 f5bd 2702 2ebc
00000020: 0a5b fa3e dde5 3dbf 3e40 3b3e 6c84 df3d
00000030: ac2c 923f e833 52bf 4054 7dbf 8c66 6ebf
00000040: 8017 ef3e 32c8 923f 5b89 0e3f fc6a ec3e
00000050: e3df 79be fe94 a9be b9c2 1f3f 7929 523d
00000060: e594 b33e 9a23 93bf b7aa 8b3f b7a3 43bf
00000070: 8906 183f 95f9 9dbd a87a c2bc 4e13 a13e
00000080: 9848 9dbf 32ab 743f a0c6 923f 5e5b 443e
00000090: bdea 553e 06a4 1a3f 32bb 253e 4704 313e
000000a0: 1352 abbf 9c1b fe3e b5f8 5c3e ce98 f83e
000000b0: 1614 7cbd 457c dc3e 4e10 343e a75f b2bf
000000c0: 2de3 b2be 3804 d23e 1a0c 123f ed6f a6be
000000d0: e1c9 ca3e 3cf7 383e f25f 32bf 6f6e 46bf
000000e0: abb9 b53e 793d 1f3f 3896 373f 4b95 e3bf
000000f0: a79f 85bd ab07 343f 97b8 843e 04b0 b6bd
00000100: f229 a7bf cc99 1bbf f1d2 8bbf c566 aebe
00000110: ba5c 0e40 7652 19bf 40eb 68bf 3f70 a43f
00000120: f395 253f 5977 99bf 3914 573e b9d1 22bf
00000130: 27bf 343f 6926 9bbf 0eec d43d d54e 0140
00000140: 95d6 96bf 02dc debe 3a05 273e 53ac 60bf
00000150: 5697 ecbe d55d c13e fdeb 6e3f 97d5 63bf
00000160: 063f 95be 4d2e c43e 0527 453e 8658 433f
00000170: 24ac c3bf 5036 2abf c602 623f 8839 ef3e
00000180: ecf4 a23e 1844 b63e 6d98 1f3e f473 e5b9
00000190: 44f4 dbbe 2b1e 583e 72ae 3a3f d4c0 e1ba
000001a0: ac8c 00bf 14f2 ee3e 9228 bfbd 06f7 a93e
000001b0: 46ea e33d a63f 76bf 1dec e73b b68c 36be
000001c0: 18ea 3fbe 8577 92be b262 d13d d620 c03d
000001d0: 1b1f 4fbe 52f6 623e fe74 03bf fac9 1fbc
000001e0: a0c0 bfbe 08bb 2abc 3154 3ebe 3a60 6b3e
000001f0: 8c4e ee3e 6c40 7e3d 0e9b b53e e61a 0cbe
00000200: e136 89bd 57f5 04c0 c117 853e c389 cd3d
00000210: 2333 133f 3a5e 08bf b202 9f3e 9b38 383e
00000220: 3b39 3cbe 40da 6d3f ea27 c33e fd44 06bf
00000230: 7eb8 2f3e 8023 94bf 1c48 febe c03a 523f
00000240: 68de a23d 3d58 1340 4206 b1bf 8b2e b3bf
00000250: 08eb ef3f 64c5 6cbd fb8f b73f 7c4a b5bd
00000260: af75 67be e0ea fc3f 3365 f13e b2a5 f43e
00000270: a024 01be 7745 d43e 3e69 943f 72eb c43f
00000280: 3b1a f2be 39e3 4fbd 5b78 9dbe e24b ec3e
00000290: 5e58 5bbf e184 4e3e dedb 2d3f afc5 7abf
000002a0: e8bf d8bd 8ba1 82bf b62b 0ebf b97d ae3d
000002b0: aec0 0ebe 97be 023e 3808 8cbf 4adc 2d3f
000002c0: e0bc f6be 6adc 863e be52 513f 9235 0f3e
000002d0: af68 803f 689a d3bf fbbd a9be 8507 7a3d
000002e0: d408 83bf c4b2 713e 1128 f23e 145c 78be
000002f0: c395 703e e7cf 3f3e cc11 cdbf 4e28 383f
00000300: 12a5 5abe 2492 9cbe 271e 0bbe 70bc f6bd
00000310: 6b3f 3b3e 5b99 11bd 69a7 373e 5298 dc3e
00000320: 13b9 0a3f 7830 02bf 9ea0 adbd 8212 6fbe
00000330: 267a 0abe 4d5c 433e 517b 433f 10e9 e73d
00000340: ab06 cd3e 01e0 2dbf 1867 5d3e 3812 e4be
00000350: fe7a 46be 1519 1fbf d8e3 143f 546e 0e3f
00000360: e864 2bbf 8784 3bbf 5e5c 70bd c3c7 193e
00000370: 1269 0a3f 7fea c03e 6eda 7e3d 57aa a2be
00000380: 4b55 2fbf 8502 353f 1ff8 213f d1e4 5dbe
00000390: 9275 3d3e 5716 5f3f d28c 0c3f 1126 71bd
000003a0: 4337 a43e 1790 9e3d 5723 90be 2e9a 21bf
000003b0: 4987 54bf 9201 833e f373 75bf d0e2 513e
000003c0: 48be 573e cbed 5abf ef42 583e 44dd a5bd
000003d0: 51b0 58bf f482 d8be 66f7 21bf fde6 b7bf
000003e0: 661f d6be 14ee 50bf 98ff 6abf b5f7 f23e
000003f0: 911b 9a3f be08 b9bf 100b e83c 0bcc 90be

arith.constant12 f4 [128, 1, 1, 32]
0.039117046 0.09830033 0.016892374 0.58163595 0.39399466 0.14308555 -0.007285023 -0.40461588
-0.6439236 0.96820664 0.5089764 -0.49178803 -0.3764017 -0.3109942 -0.36531702 -0.39731425
0.1448181 -0.3473803 -0.25791836 0.6592466 -0.5314615 -0.025964282 -0.6497958 -0.56240636
-0.2227113 -0.43860427 0.33474126 -0.19391727 -0.081557475 -0.455279 -0.057757646 -0.78216326
0.34425855 -0.5137903 0.38771808 -0.5504286 -0.62038237 0.5153966 0.60532004 -0.04843758
-0.5226688 2.1485012 0.08464903 0.0517792 0.27109265 -0.05885108 -0.15862162 -0.5831504
-0.2586724 -0.40656087 -0.055178676 -0.86966735 0.9692998 0.119870126 -0.25934798 -0.1824138
0.09270431 0.62786615 0.1510062 -0.9642874 0.3597129 0.25140136 -0.42041817 0.47788495
0.12218033 0.5383767 -0.6224575 0.27480048 0.2888177 -0.118816026 -0.38394144 -0.18576656
1.128669 0.068684764 0.29715598 -0.46520928 0.5311896 -0.59537363 0.7561966 -0.32536784
-0.54089683 0.02429242 0.3387898 -0.14213075 -0.7816867 -0.18253747 -0.12708917 0.74211603
-0.7839191 0.37351814 -0.7551074 -0.29911864 1.9836189 -1.6907234 -0.41008723 0.05344587
-0.018801117 -0.05633917 0.30507448 -0.02650855 0.69754326 0.39658445 -0.20855409 0.32634392
0.252374 0.07293797 -0.013285511 0.004803482 0.2684315 0.2609839 -0.18018956 -0.07507753
0.4085525 -0.5029779 -1.7090539 0.7105306 0.513827 -0.27310342 -0.41881135 0.16999
0.21567903 -0.55446887 0.09903247 -0.33887982 0.042639412 -1.2286904 -0.9788009 -0.116040796
1.0289811 -0.75822824 -0.8325279 1.3940791 0.012961878 -0.6709168 -0.62627107 -0.3397045
0.040959798 0.027594306 -0.30555415 0.3189869 0.033214618 0.30119503 -0.36704153 -0.49803904
-0.20993803 0.0359423 -0.48032182 -0.64635843 0.25317574 -0.09152139 0.14297582 0.75161153
0.85671604 0.1897252 0.61122096 -0.10081272 -0.04519018 0.0770555 0.8403294 -0.3037089
-1.3498688 -0.5273126 -0.538269 0.02017808 -1.3372664 0.21795897 0.05504294 0.9523887
0.84562105 0.012706765 0.14965273 -0.021172805 -0.770128 -0.35209358 0.4853908 0.60884905
-0.95348686 0.43188134 0.29903507 -0.052594077 -0.8221256 -0.6644751 1.6362047 -0.31297892
-1.140195 0.2984411 1.098987 0.5348982 -0.23082288 -0.17341346 0.35947758 -0.14781404
0.0957287 0.09359207 -0.09266287 0.15491092 0.4112483 -0.4537019 0.88582236 -0.124813266
0.47806484 -0.5876488 0.082871355 0.100694 -0.116719626 -0.02109248 -0.624288 -0.11447882
0.8554253 -0.13038722 0.47194204 0.25094742 0.031698022 0.20777091 0.6286024 -0.3596346
-0.6731735 0.31775975 -0.3556407 0.42627057 -0.045140535 -0.099046126 -0.5322651 0.62759525
-0.31509832 -0.28686243 -0.7379654 -0.10771968 -0.17889847 1.3850487 0.032733507 -0.7924897
0.004931952 -1.048616 0.322479 0.0025752883 -0.7286628 0.5582969 1.074588 -0.6739186
-0.028877415 0.50065476 0.34190086 0.23619144 -0.3146394 -0.40826356 -0.65135914 0.07565026
0.98133475 0.17977208 0.3400313 0.47684902 -0.8362777 -0.6240232 0.54180515 -0.3168853
00000000: 3239 203d af51 c93d e061 8a3c 18e6 143f
00000010: abb9 c93e 0585 123e 34b7 eebb d029 cfbe
00000020: 2dd8 24bf 64dc 773f 474c 023f a4cb fbbe
00000030: b9b7 c0be a23a 9fbe d50a bbbe c66c cbbe
00000040: 324b 143e d5db b1be e00d 84be 63c4 283f
00000050: dc0d 08bf 0cb3 d4bc 0459 26bf ddf9 0fbf
00000060: 6e0e 64be bd90 e0be 3563 ab3e 4092 46be
00000070: 9b07 a7bd 541a e9be 4893 6cbd da3b 48bf
00000080: a842 b03e c387 03bf fc82 c63e e4e8 0cbf
00000090: 61d1 1ebf 08f1 033f 41f6 1a3f 7c66 46bd
000000a0: 9fcd 05bf 0b81 0940 785c ad3d 6d16 543d
000000b0: a8cc 8a3e d40d 71bd b56d 22be 5849 15bf
000000c0: b570 84be bf28 d0be 0903 62bd 85a2 5ebf
000000d0: 0824 783f 787e f53d 42c9 84be afca 3abe
000000e0: c2db bd3d d6bb 203f 5fa1 1a3e 8adb 76bf
000000f0: 4a2c b83e aeb7 803e 0d41 d7be 56ad f43e
00000100: ae39 fa3d 0ed3 093f 6059 1fbf a6b2 8c3e
00000110: eadf 933e d155 f3bd f993 c4be 9739 3ebe
00000120: 3a78 903f 99aa 8c3d d424 983e e92f eebe
00000130: 0bfc 073f 686a 18bf 1a96 413f 9d96 a6be
00000140: 3778 0abf e600 c73c db75 ad3e b98a 11be
00000150: 9f1c 48bf 1aeb 3abe aa23 02be 51fb 3d3f
00000160: ecae 48bf c53d bf3e b84e 41bf 1426 99be
00000170: 39e7 fd3f a069 d8bf f4f6 d1be 0eea 5a3d
00000180: cd04 9abc e7c3 66bd b932 9c3e 7528 d9bc
00000190: 3292 323f 1e0d cb3e 348f 55be 8d16 a73e
000001a0: 2a37 813e 8160 953d 79ab 59bc 8766 9d3b
000001b0: db6f 893e af9f 853e 9d83 38be 40c2 99bd
000001c0: cb2d d13e 29c3 00bf 47c2 dabf 55e5 353f
000001d0: 2b8a 033f 36d4 8bbe 716e d6be dc11 2e3e
000001e0: f7da 5c3e acf1 0dbf 89d1 ca3d a881 adbe
000001f0: aaa6 2e3d ba45 9dbf b292 7abf cca6 edbd
00000200: a7b5 833f 3f1b 42bf 8c20 55bf 2f71 b23f
00000210: 0f5e 543c 34c1 2bbf 4d53 20bf c0ed adbe
00000220: 76c5 273d 740d e23c 9871 9cbe 4052 a33e
00000230: 0d0c 083d 3c36 9a3e deec bbbe f9fe febe
00000240: fff9 56be 3c38 133d beec f5be bf77 25bf
00000250: 40a0 813e 916f bbbd 4168 123e 9d69 403f
00000260: be51 5b3f 5347 423e fa78 1c3f e676 cebd
00000270: 5719 39bd 46cf 9d3d d41f 573f bc7f 9bbe
00000280: 80c8 acbf f5fd 06bf ffcb 09bf 804c a53c
00000290: 8c2b abbf a330 5f3e b574 613d bfcf 733f
000002a0: 9f7a 583f 0930 503c 913e 193e 9772 adbc
000002b0: 1c27 45bf 9c45 b4be 2585 f83e 88dd 1b3f
000002c0: b717 74bf 8d1f dd3e 201b 993e e36c 57bd
000002d0: d376 52bf 0a1b 2abf 286f d13f c63e a0be
000002e0: e9f1 91bf 46cd 983e 9bab 8c3f 17ef 083f
000002f0: d55c 6cbe 4c93 31be 720d b83e 905c 17be
00000300: 690d c43d 33ad bf3d 08c6 bdbd f8a0 1e3e
00000310: 238f d23e 9e4b e8be 41c5 623f 199e ffbd
00000320: eac4 f43e 2770 16bf 75b8 a93d a838 ce3d
00000330: b30a efbd 23ca acbc 57d1 1fbf df73 eabd
00000340: 27fd 5a3f 3a84 05be 63a2 f13e 2e7c 803e
00000350: c9d5 013d e6c1 543e 16ec 203f 0722 b8be
00000360: 1955 2cbf 68b1 a23e 8a16 b6be 2340 da3e
00000370: 48e5 38bd b2d8 cabd 8742 08bf 15aa 203f
00000380: 9154 a1be a2df 92be 4deb 3cbf 239c dcbd
00000390: 2931 37be 4749 b13f 9213 063d 9be0 4abf
000003a0: 369c a13b 0d39 86bf f81b a53e 2bc6 283b
000003b0: a589 3abf 8cec 0e3f 198c 893f ee85 2cbf
000003c0: 5490 ecbc e92a 003f a10d af3e 2bdc 713e
000003d0: 6a18 a1be ec07 d1be 79bf 26bf 86ee 9a3d
000003e0: c138 7b3f 2c16 383e 9518 ae3e 8e25 f43e
000003f0: 4c16 56bf fcbf 1fbf beb3 0a3f ca3e a2be
